…
[2023-04-28 13:54:50,423] [INFO] [comm.py:697:mpi_discovery] Discovered MPI settings of world_rank=39, local_rank=3, world_size=54, master_addr=10.134.18.11, master_port=29500
[2023-04-28 13:54:50,423] [INFO] [comm.py:697:mpi_discovery] Discovered MPI settings of world_rank=38, local_rank=2, world_size=54, master_addr=10.134.18.11, master_port=29500
[2023-04-28 13:54:50,423] [INFO] [comm.py:697:mpi_discovery] Discovered MPI settings of world_rank=40, local_rank=4, world_size=54, master_addr=10.134.18.11, master_port=29500
Loading NeoX language model...
branch 3
branch 3
branch 3
branch 3
branch 3
branch 3
branch 3
branch 3
branch 3
branch 3
branch 3
branch 3
Transformer(
  (resblocks): ModuleList(
    (0): ResidualAttentionBlock(
      (ln_1): LayerNorm((1280,), eps=1e-05, elementwise_affine=True)
      (attn): MultiheadAttention(
        (out_proj): NonDynamicallyQuantizableLinear(in_features=1280, out_features=1280, bias=True)
      )
      (ls_1): Identity()
      (ln_2): LayerNorm((1280,), eps=1e-05, elementwise_affine=True)
      (mlp): Sequential(
        (c_fc): Linear(in_features=1280, out_features=5120, bias=True)
        (gelu): GELU(approximate=none)
        (c_proj): Linear(in_features=5120, out_features=1280, bias=True)
      )
      (ls_2): Identity()
    )
    (1): ResidualAttentionBlock(
      (ln_1): LayerNorm((1280,), eps=1e-05, elementwise_affine=True)
      (attn): MultiheadAttention(
        (out_proj): NonDynamicallyQuantizableLinear(in_features=1280, out_features=1280, bias=True)
      )
      (ls_1): Identity()
      (ln_2): LayerNorm((1280,), eps=1e-05, elementwise_affine=True)
      (mlp): Sequential(
        (c_fc): Linear(in_features=1280, out_features=5120, bias=True)
        (gelu): GELU(approximate=none)
        (c_proj): Linear(in_features=5120, out_features=1280, bias=True)
      )
      (ls_2): Identity()
    )
    (2): ResidualAttentionBlock(
      (ln_1): LayerNorm((1280,), eps=1e-05, elementwise_affine=True)
      (attn): MultiheadAttention(
        (out_proj): NonDynamicallyQuantizableLinear(in_features=1280, out_features=1280, bias=True)
      )
      (ls_1): Identity()
      (ln_2): LayerNorm((1280,), eps=1e-05, elementwise_affine=True)
      (mlp): Sequential(
        (c_fc): Linear(in_features=1280, out_features=5120, bias=True)
        (gelu): GELU(approximate=none)
        (c_proj): Linear(in_features=5120, out_features=1280, bias=True)
      )
      (ls_2): Identity()
    )
    (3): ResidualAttentionBlock(
      (ln_1): LayerNorm((1280,), eps=1e-05, elementwise_affine=True)
      (attn): MultiheadAttention(
        (out_proj): NonDynamicallyQuantizableLinear(in_features=1280, out_features=1280, bias=True)
      )
      (ls_1): Identity()
      (ln_2): LayerNorm((1280,), eps=1e-05, elementwise_affine=True)
      (mlp): Sequential(
        (c_fc): Linear(in_features=1280, out_features=5120, bias=True)
        (gelu): GELU(approximate=none)
        (c_proj): Linear(in_features=5120, out_features=1280, bias=True)
      )
      (ls_2): Identity()
    )
    (4): ResidualAttentionBlock(
      (ln_1): LayerNorm((1280,), eps=1e-05, elementwise_affine=True)
      (attn): MultiheadAttention(
        (out_proj): NonDynamicallyQuantizableLinear(in_features=1280, out_features=1280, bias=True)
      )
      (ls_1): Identity()
      (ln_2): LayerNorm((1280,), eps=1e-05, elementwise_affine=True)
      (mlp): Sequential(
        (c_fc): Linear(in_features=1280, out_features=5120, bias=True)
        (gelu): GELU(approximate=none)
        (c_proj): Linear(in_features=5120, out_features=1280, bias=True)
      )
      (ls_2): Identity()
    )
    (5): ResidualAttentionBlock(
      (ln_1): LayerNorm((1280,), eps=1e-05, elementwise_affine=True)
      (attn): MultiheadAttention(
        (out_proj): NonDynamicallyQuantizableLinear(in_features=1280, out_features=1280, bias=True)
      )
      (ls_1): Identity()
      (ln_2): LayerNorm((1280,), eps=1e-05, elementwise_affine=True)
      (mlp): Sequential(
        (c_fc): Linear(in_features=1280, out_features=5120, bias=True)
        (gelu): GELU(approximate=none)
        (c_proj): Linear(in_features=5120, out_features=1280, bias=True)
      )
      (ls_2): Identity()
    )
    (6): ResidualAttentionBlock(
      (ln_1): LayerNorm((1280,), eps=1e-05, elementwise_affine=True)
      (attn): MultiheadAttention(
        (out_proj): NonDynamicallyQuantizableLinear(in_features=1280, out_features=1280, bias=True)
      )
      (ls_1): Identity()
      (ln_2): LayerNorm((1280,), eps=1e-05, elementwise_affine=True)
      (mlp): Sequential(
        (c_fc): Linear(in_features=1280, out_features=5120, bias=True)
        (gelu): GELU(approximate=none)
        (c_proj): Linear(in_features=5120, out_features=1280, bias=True)
      )
      (ls_2): Identity()
    )
    (7): ResidualAttentionBlock(
      (ln_1): LayerNorm((1280,), eps=1e-05, elementwise_affine=True)
      (attn): MultiheadAttention(
        (out_proj): NonDynamicallyQuantizableLinear(in_features=1280, out_features=1280, bias=True)
      )
      (ls_1): Identity()
      (ln_2): LayerNorm((1280,), eps=1e-05, elementwise_affine=True)
      (mlp): Sequential(
        (c_fc): Linear(in_features=1280, out_features=5120, bias=True)
        (gelu): GELU(approximate=none)
        (c_proj): Linear(in_features=5120, out_features=1280, bias=True)
      )
      (ls_2): Identity()
    )
    (8): ResidualAttentionBlock(
      (ln_1): LayerNorm((1280,), eps=1e-05, elementwise_affine=True)
      (attn): MultiheadAttention(
        (out_proj): NonDynamicallyQuantizableLinear(in_features=1280, out_features=1280, bias=True)
      )
      (ls_1): Identity()
      (ln_2): LayerNorm((1280,), eps=1e-05, elementwise_affine=True)
      (mlp): Sequential(
        (c_fc): Linear(in_features=1280, out_features=5120, bias=True)
        (gelu): GELU(approximate=none)
        (c_proj): Linear(in_features=5120, out_features=1280, bias=True)
      )
      (ls_2): Identity()
    )
    (9): ResidualAttentionBlock(
      (ln_1): LayerNorm((1280,), eps=1e-05, elementwise_affine=True)
      (attn): MultiheadAttention(
        (out_proj): NonDynamicallyQuantizableLinear(in_features=1280, out_features=1280, bias=True)
      )
      (ls_1): Identity()
      (ln_2): LayerNorm((1280,), eps=1e-05, elementwise_affine=True)
      (mlp): Sequential(
        (c_fc): Linear(in_features=1280, out_features=5120, bias=True)
        (gelu): GELU(approximate=none)
        (c_proj): Linear(in_features=5120, out_features=1280, bias=True)
      )
      (ls_2): Identity()
    )
    (10): ResidualAttentionBlock(
      (ln_1): LayerNorm((1280,), eps=1e-05, elementwise_affine=True)
      (attn): MultiheadAttention(
        (out_proj): NonDynamicallyQuantizableLinear(in_features=1280, out_features=1280, bias=True)
      )
      (ls_1): Identity()
      (ln_2): LayerNorm((1280,), eps=1e-05, elementwise_affine=True)
      (mlp): Sequential(
        (c_fc): Linear(in_features=1280, out_features=5120, bias=True)
        (gelu): GELU(approximate=none)
        (c_proj): Linear(in_features=5120, out_features=1280, bias=True)
      )
      (ls_2): Identity()
    )
    (11): ResidualAttentionBlock(
      (ln_1): LayerNorm((1280,), eps=1e-05, elementwise_affine=True)
      (attn): MultiheadAttention(
        (out_proj): NonDynamicallyQuantizableLinear(in_features=1280, out_features=1280, bias=True)
      )
      (ls_1): Identity()
      (ln_2): LayerNorm((1280,), eps=1e-05, elementwise_affine=True)
      (mlp): Sequential(
        (c_fc): Linear(in_features=1280, out_features=5120, bias=True)
        (gelu): GELU(approximate=none)
        (c_proj): Linear(in_features=5120, out_features=1280, bias=True)
      )
      (ls_2): Identity()
    )
    (12): ResidualAttentionBlock(
      (ln_1): LayerNorm((1280,), eps=1e-05, elementwise_affine=True)
      (attn): MultiheadAttention(
        (out_proj): NonDynamicallyQuantizableLinear(in_features=1280, out_features=1280, bias=True)
      )
      (ls_1): Identity()
      (ln_2): LayerNorm((1280,), eps=1e-05, elementwise_affine=True)
      (mlp): Sequential(
        (c_fc): Linear(in_features=1280, out_features=5120, bias=True)
        (gelu): GELU(approximate=none)
        (c_proj): Linear(in_features=5120, out_features=1280, bias=True)
      )
      (ls_2): Identity()
    )
    (13): ResidualAttentionBlock(
      (ln_1): LayerNorm((1280,), eps=1e-05, elementwise_affine=True)
      (attn): MultiheadAttention(
        (out_proj): NonDynamicallyQuantizableLinear(in_features=1280, out_features=1280, bias=True)
      )
      (ls_1): Identity()
      (ln_2): LayerNorm((1280,), eps=1e-05, elementwise_affine=True)
      (mlp): Sequential(
        (c_fc): Linear(in_features=1280, out_features=5120, bias=True)
        (gelu): GELU(approximate=none)
        (c_proj): Linear(in_features=5120, out_features=1280, bias=True)
      )
      (ls_2): Identity()
    )
    (14): ResidualAttentionBlock(
      (ln_1): LayerNorm((1280,), eps=1e-05, elementwise_affine=True)
      (attn): MultiheadAttention(
        (out_proj): NonDynamicallyQuantizableLinear(in_features=1280, out_features=1280, bias=True)
      )
      (ls_1): Identity()
      (ln_2): LayerNorm((1280,), eps=1e-05, elementwise_affine=True)
      (mlp): Sequential(
        (c_fc): Linear(in_features=1280, out_features=5120, bias=True)
        (gelu): GELU(approximate=none)
        (c_proj): Linear(in_features=5120, out_features=1280, bias=True)
      )
      (ls_2): Identity()
    )
    (15): ResidualAttentionBlock(
      (ln_1): LayerNorm((1280,), eps=1e-05, elementwise_affine=True)
      (attn): MultiheadAttention(
        (out_proj): NonDynamicallyQuantizableLinear(in_features=1280, out_features=1280, bias=True)
      )
      (ls_1): Identity()
      (ln_2): LayerNorm((1280,), eps=1e-05, elementwise_affine=True)
      (mlp): Sequential(
        (c_fc): Linear(in_features=1280, out_features=5120, bias=True)
        (gelu): GELU(approximate=none)
        (c_proj): Linear(in_features=5120, out_features=1280, bias=True)
      )
      (ls_2): Identity()
    )
    (16): ResidualAttentionBlock(
      (ln_1): LayerNorm((1280,), eps=1e-05, elementwise_affine=True)
      (attn): MultiheadAttention(
        (out_proj): NonDynamicallyQuantizableLinear(in_features=1280, out_features=1280, bias=True)
      )
      (ls_1): Identity()
      (ln_2): LayerNorm((1280,), eps=1e-05, elementwise_affine=True)
      (mlp): Sequential(
        (c_fc): Linear(in_features=1280, out_features=5120, bias=True)
        (gelu): GELU(approximate=none)
        (c_proj): Linear(in_features=5120, out_features=1280, bias=True)
      )
      (ls_2): Identity()
    )
    (17): ResidualAttentionBlock(
      (ln_1): LayerNorm((1280,), eps=1e-05, elementwise_affine=True)
      (attn): MultiheadAttention(
        (out_proj): NonDynamicallyQuantizableLinear(in_features=1280, out_features=1280, bias=True)
      )
      (ls_1): Identity()
      (ln_2): LayerNorm((1280,), eps=1e-05, elementwise_affine=True)
      (mlp): Sequential(
        (c_fc): Linear(in_features=1280, out_features=5120, bias=True)
        (gelu): GELU(approximate=none)
        (c_proj): Linear(in_features=5120, out_features=1280, bias=True)
      )
      (ls_2): Identity()
    )
    (18): ResidualAttentionBlock(
      (ln_1): LayerNorm((1280,), eps=1e-05, elementwise_affine=True)
      (attn): MultiheadAttention(
        (out_proj): NonDynamicallyQuantizableLinear(in_features=1280, out_features=1280, bias=True)
      )
      (ls_1): Identity()
      (ln_2): LayerNorm((1280,), eps=1e-05, elementwise_affine=True)
      (mlp): Sequential(
        (c_fc): Linear(in_features=1280, out_features=5120, bias=True)
        (gelu): GELU(approximate=none)
        (c_proj): Linear(in_features=5120, out_features=1280, bias=True)
      )
      (ls_2): Identity()
    )
    (19): ResidualAttentionBlock(
      (ln_1): LayerNorm((1280,), eps=1e-05, elementwise_affine=True)
      (attn): MultiheadAttention(
        (out_proj): NonDynamicallyQuantizableLinear(in_features=1280, out_features=1280, bias=True)
      )
      (ls_1): Identity()
      (ln_2): LayerNorm((1280,), eps=1e-05, elementwise_affine=True)
      (mlp): Sequential(
        (c_fc): Linear(in_features=1280, out_features=5120, bias=True)
        (gelu): GELU(approximate=none)
        (c_proj): Linear(in_features=5120, out_features=1280, bias=True)
      )
      (ls_2): Identity()
    )
    (20): ResidualAttentionBlock(
      (ln_1): LayerNorm((1280,), eps=1e-05, elementwise_affine=True)
      (attn): MultiheadAttention(
        (out_proj): NonDynamicallyQuantizableLinear(in_features=1280, out_features=1280, bias=True)
      )
      (ls_1): Identity()
      (ln_2): LayerNorm((1280,), eps=1e-05, elementwise_affine=True)
      (mlp): Sequential(
        (c_fc): Linear(in_features=1280, out_features=5120, bias=True)
        (gelu): GELU(approximate=none)
        (c_proj): Linear(in_features=5120, out_features=1280, bias=True)
      )
      (ls_2): Identity()
    )
    (21): ResidualAttentionBlock(
      (ln_1): LayerNorm((1280,), eps=1e-05, elementwise_affine=True)
      (attn): MultiheadAttention(
        (out_proj): NonDynamicallyQuantizableLinear(in_features=1280, out_features=1280, bias=True)
      )
      (ls_1): Identity()
      (ln_2): LayerNorm((1280,), eps=1e-05, elementwise_affine=True)
      (mlp): Sequential(
        (c_fc): Linear(in_features=1280, out_features=5120, bias=True)
        (gelu): GELU(approximate=none)
        (c_proj): Linear(in_features=5120, out_features=1280, bias=True)
      )
      (ls_2): Identity()
    )
    (22): ResidualAttentionBlock(
      (ln_1): LayerNorm((1280,), eps=1e-05, elementwise_affine=True)
      (attn): MultiheadAttention(
        (out_proj): NonDynamicallyQuantizableLinear(in_features=1280, out_features=1280, bias=True)
      )
      (ls_1): Identity()
      (ln_2): LayerNorm((1280,), eps=1e-05, elementwise_affine=True)
      (mlp): Sequential(
        (c_fc): Linear(in_features=1280, out_features=5120, bias=True)
        (gelu): GELU(approximate=none)
        (c_proj): Linear(in_features=5120, out_features=1280, bias=True)
      )
      (ls_2): Identity()
    )
    (23): ResidualAttentionBlock(
      (ln_1): LayerNorm((1280,), eps=1e-05, elementwise_affine=True)
      (attn): MultiheadAttention(
        (out_proj): NonDynamicallyQuantizableLinear(in_features=1280, out_features=1280, bias=True)
      )
      (ls_1): Identity()
      (ln_2): LayerNorm((1280,), eps=1e-05, elementwise_affine=True)
      (mlp): Sequential(
        (c_fc): Linear(in_features=1280, out_features=5120, bias=True)
        (gelu): GELU(approximate=none)
        (c_proj): Linear(in_features=5120, out_features=1280, bias=True)
      )
      (ls_2): Identity()
    )
    (24): ResidualAttentionBlock(
      (ln_1): LayerNorm((1280,), eps=1e-05, elementwise_affine=True)
      (attn): MultiheadAttention(
        (out_proj): NonDynamicallyQuantizableLinear(in_features=1280, out_features=1280, bias=True)
      )
      (ls_1): Identity()
      (ln_2): LayerNorm((1280,), eps=1e-05, elementwise_affine=True)
      (mlp): Sequential(
        (c_fc): Linear(in_features=1280, out_features=5120, bias=True)
        (gelu): GELU(approximate=none)
        (c_proj): Linear(in_features=5120, out_features=1280, bias=True)
      )
      (ls_2): Identity()
    )
    (25): ResidualAttentionBlock(
      (ln_1): LayerNorm((1280,), eps=1e-05, elementwise_affine=True)
      (attn): MultiheadAttention(
        (out_proj): NonDynamicallyQuantizableLinear(in_features=1280, out_features=1280, bias=True)
      )
      (ls_1): Identity()
      (ln_2): LayerNorm((1280,), eps=1e-05, elementwise_affine=True)
      (mlp): Sequential(
        (c_fc): Linear(in_features=1280, out_features=5120, bias=True)
        (gelu): GELU(approximate=none)
        (c_proj): Linear(in_features=5120, out_features=1280, bias=True)
      )
      (ls_2): Identity()
    )
    (26): ResidualAttentionBlock(
      (ln_1): LayerNorm((1280,), eps=1e-05, elementwise_affine=True)
      (attn): MultiheadAttention(
        (out_proj): NonDynamicallyQuantizableLinear(in_features=1280, out_features=1280, bias=True)
      )
      (ls_1): Identity()
      (ln_2): LayerNorm((1280,), eps=1e-05, elementwise_affine=True)
      (mlp): Sequential(
        (c_fc): Linear(in_features=1280, out_features=5120, bias=True)
        (gelu): GELU(approximate=none)
        (c_proj): Linear(in_features=5120, out_features=1280, bias=True)
      )
      (ls_2): Identity()
    )
    (27): ResidualAttentionBlock(
      (ln_1): LayerNorm((1280,), eps=1e-05, elementwise_affine=True)
      (attn): MultiheadAttention(
        (out_proj): NonDynamicallyQuantizableLinear(in_features=1280, out_features=1280, bias=True)
      )
      (ls_1): Identity()
      (ln_2): LayerNorm((1280,), eps=1e-05, elementwise_affine=True)
      (mlp): Sequential(
        (c_fc): Linear(in_features=1280, out_features=5120, bias=True)
        (gelu): GELU(approximate=none)
        (c_proj): Linear(in_features=5120, out_features=1280, bias=True)
      )
      (ls_2): Identity()
    )
    (28): ResidualAttentionBlock(
      (ln_1): LayerNorm((1280,), eps=1e-05, elementwise_affine=True)
      (attn): MultiheadAttention(
        (out_proj): NonDynamicallyQuantizableLinear(in_features=1280, out_features=1280, bias=True)
      )
      (ls_1): Identity()
      (ln_2): LayerNorm((1280,), eps=1e-05, elementwise_affine=True)
      (mlp): Sequential(
        (c_fc): Linear(in_features=1280, out_features=5120, bias=True)
        (gelu): GELU(approximate=none)
        (c_proj): Linear(in_features=5120, out_features=1280, bias=True)
      )
      (ls_2): Identity()
    )
    (29): ResidualAttentionBlock(
      (ln_1): LayerNorm((1280,), eps=1e-05, elementwise_affine=True)
      (attn): MultiheadAttention(
        (out_proj): NonDynamicallyQuantizableLinear(in_features=1280, out_features=1280, bias=True)
      )
      (ls_1): Identity()
      (ln_2): LayerNorm((1280,), eps=1e-05, elementwise_affine=True)
      (mlp): Sequential(
        (c_fc): Linear(in_features=1280, out_features=5120, bias=True)
        (gelu): GELU(approximate=none)
        (c_proj): Linear(in_features=5120, out_features=1280, bias=True)
      )
      (ls_2): Identity()
    )
    (30): ResidualAttentionBlock(
      (ln_1): LayerNorm((1280,), eps=1e-05, elementwise_affine=True)
      (attn): MultiheadAttention(
        (out_proj): NonDynamicallyQuantizableLinear(in_features=1280, out_features=1280, bias=True)
      )
      (ls_1): Identity()
      (ln_2): LayerNorm((1280,), eps=1e-05, elementwise_affine=True)
      (mlp): Sequential(
        (c_fc): Linear(in_features=1280, out_features=5120, bias=True)
        (gelu): GELU(approximate=none)
        (c_proj): Linear(in_features=5120, out_features=1280, bias=True)
      )
      (ls_2): Identity()
    )
    (31): ResidualAttentionBlock(
      (ln_1): LayerNorm((1280,), eps=1e-05, elementwise_affine=True)
      (attn): MultiheadAttention(
        (out_proj): NonDynamicallyQuantizableLinear(in_features=1280, out_features=1280, bias=True)
      )
      (ls_1): Identity()
      (ln_2): LayerNorm((1280,), eps=1e-05, elementwise_affine=True)
      (mlp): Sequential(
        (c_fc): Linear(in_features=1280, out_features=5120, bias=True)
        (gelu): GELU(approximate=none)
        (c_proj): Linear(in_features=5120, out_features=1280, bias=True)
      )
      (ls_2): Identity()
    )
  )
)
self.transformer size is 629678080
Transformer(
  (resblocks): ModuleList(
    (0): ResidualAttentionBlock(
      (ln_1): LayerNorm((1280,), eps=1e-05, elementwise_affine=True)
      (attn): MultiheadAttention(
        (out_proj): NonDynamicallyQuantizableLinear(in_features=1280, out_features=1280, bias=True)
      )
      (ls_1): Identity()
      (ln_2): LayerNorm((1280,), eps=1e-05, elementwise_affine=True)
      (mlp): Sequential(
        (c_fc): Linear(in_features=1280, out_features=5120, bias=True)
        (gelu): GELU(approximate=none)
        (c_proj): Linear(in_features=5120, out_features=1280, bias=True)
      )
      (ls_2): Identity()
    )
    (1): ResidualAttentionBlock(
      (ln_1): LayerNorm((1280,), eps=1e-05, elementwise_affine=True)
      (attn): MultiheadAttention(
        (out_proj): NonDynamicallyQuantizableLinear(in_features=1280, out_features=1280, bias=True)
      )
      (ls_1): Identity()
      (ln_2): LayerNorm((1280,), eps=1e-05, elementwise_affine=True)
      (mlp): Sequential(
        (c_fc): Linear(in_features=1280, out_features=5120, bias=True)
        (gelu): GELU(approximate=none)
        (c_proj): Linear(in_features=5120, out_features=1280, bias=True)
      )
      (ls_2): Identity()
    )
    (2): ResidualAttentionBlock(
      (ln_1): LayerNorm((1280,), eps=1e-05, elementwise_affine=True)
      (attn): MultiheadAttention(
        (out_proj): NonDynamicallyQuantizableLinear(in_features=1280, out_features=1280, bias=True)
      )
      (ls_1): Identity()
      (ln_2): LayerNorm((1280,), eps=1e-05, elementwise_affine=True)
      (mlp): Sequential(
        (c_fc): Linear(in_features=1280, out_features=5120, bias=True)
        (gelu): GELU(approximate=none)
        (c_proj): Linear(in_features=5120, out_features=1280, bias=True)
      )
      (ls_2): Identity()
    )
    (3): ResidualAttentionBlock(
      (ln_1): LayerNorm((1280,), eps=1e-05, elementwise_affine=True)
      (attn): MultiheadAttention(
        (out_proj): NonDynamicallyQuantizableLinear(in_features=1280, out_features=1280, bias=True)
      )
      (ls_1): Identity()
      (ln_2): LayerNorm((1280,), eps=1e-05, elementwise_affine=True)
      (mlp): Sequential(
        (c_fc): Linear(in_features=1280, out_features=5120, bias=True)
        (gelu): GELU(approximate=none)
        (c_proj): Linear(in_features=5120, out_features=1280, bias=True)
      )
      (ls_2): Identity()
    )
    (4): ResidualAttentionBlock(
      (ln_1): LayerNorm((1280,), eps=1e-05, elementwise_affine=True)
      (attn): MultiheadAttention(
        (out_proj): NonDynamicallyQuantizableLinear(in_features=1280, out_features=1280, bias=True)
      )
      (ls_1): Identity()
      (ln_2): LayerNorm((1280,), eps=1e-05, elementwise_affine=True)
      (mlp): Sequential(
        (c_fc): Linear(in_features=1280, out_features=5120, bias=True)
        (gelu): GELU(approximate=none)
        (c_proj): Linear(in_features=5120, out_features=1280, bias=True)
      )
      (ls_2): Identity()
    )
    (5): ResidualAttentionBlock(
      (ln_1): LayerNorm((1280,), eps=1e-05, elementwise_affine=True)
      (attn): MultiheadAttention(
        (out_proj): NonDynamicallyQuantizableLinear(in_features=1280, out_features=1280, bias=True)
      )
      (ls_1): Identity()
      (ln_2): LayerNorm((1280,), eps=1e-05, elementwise_affine=True)
      (mlp): Sequential(
        (c_fc): Linear(in_features=1280, out_features=5120, bias=True)
        (gelu): GELU(approximate=none)
        (c_proj): Linear(in_features=5120, out_features=1280, bias=True)
      )
      (ls_2): Identity()
    )
    (6): ResidualAttentionBlock(
      (ln_1): LayerNorm((1280,), eps=1e-05, elementwise_affine=True)
      (attn): MultiheadAttention(
        (out_proj): NonDynamicallyQuantizableLinear(in_features=1280, out_features=1280, bias=True)
      )
      (ls_1): Identity()
      (ln_2): LayerNorm((1280,), eps=1e-05, elementwise_affine=True)
      (mlp): Sequential(
        (c_fc): Linear(in_features=1280, out_features=5120, bias=True)
        (gelu): GELU(approximate=none)
        (c_proj): Linear(in_features=5120, out_features=1280, bias=True)
      )
      (ls_2): Identity()
    )
    (7): ResidualAttentionBlock(
      (ln_1): LayerNorm((1280,), eps=1e-05, elementwise_affine=True)
      (attn): MultiheadAttention(
        (out_proj): NonDynamicallyQuantizableLinear(in_features=1280, out_features=1280, bias=True)
      )
      (ls_1): Identity()
      (ln_2): LayerNorm((1280,), eps=1e-05, elementwise_affine=True)
      (mlp): Sequential(
        (c_fc): Linear(in_features=1280, out_features=5120, bias=True)
        (gelu): GELU(approximate=none)
        (c_proj): Linear(in_features=5120, out_features=1280, bias=True)
      )
      (ls_2): Identity()
    )
    (8): ResidualAttentionBlock(
      (ln_1): LayerNorm((1280,), eps=1e-05, elementwise_affine=True)
      (attn): MultiheadAttention(
        (out_proj): NonDynamicallyQuantizableLinear(in_features=1280, out_features=1280, bias=True)
      )
      (ls_1): Identity()
      (ln_2): LayerNorm((1280,), eps=1e-05, elementwise_affine=True)
      (mlp): Sequential(
        (c_fc): Linear(in_features=1280, out_features=5120, bias=True)
        (gelu): GELU(approximate=none)
        (c_proj): Linear(in_features=5120, out_features=1280, bias=True)
      )
      (ls_2): Identity()
    )
    (9): ResidualAttentionBlock(
      (ln_1): LayerNorm((1280,), eps=1e-05, elementwise_affine=True)
      (attn): MultiheadAttention(
        (out_proj): NonDynamicallyQuantizableLinear(in_features=1280, out_features=1280, bias=True)
      )
      (ls_1): Identity()
      (ln_2): LayerNorm((1280,), eps=1e-05, elementwise_affine=True)
      (mlp): Sequential(
        (c_fc): Linear(in_features=1280, out_features=5120, bias=True)
        (gelu): GELU(approximate=none)
        (c_proj): Linear(in_features=5120, out_features=1280, bias=True)
      )
      (ls_2): Identity()
    )
    (10): ResidualAttentionBlock(
      (ln_1): LayerNorm((1280,), eps=1e-05, elementwise_affine=True)
      (attn): MultiheadAttention(
        (out_proj): NonDynamicallyQuantizableLinear(in_features=1280, out_features=1280, bias=True)
      )
      (ls_1): Identity()
      (ln_2): LayerNorm((1280,), eps=1e-05, elementwise_affine=True)
      (mlp): Sequential(
        (c_fc): Linear(in_features=1280, out_features=5120, bias=True)
        (gelu): GELU(approximate=none)
        (c_proj): Linear(in_features=5120, out_features=1280, bias=True)
      )
      (ls_2): Identity()
    )
    (11): ResidualAttentionBlock(
      (ln_1): LayerNorm((1280,), eps=1e-05, elementwise_affine=True)
      (attn): MultiheadAttention(
        (out_proj): NonDynamicallyQuantizableLinear(in_features=1280, out_features=1280, bias=True)
      )
      (ls_1): Identity()
      (ln_2): LayerNorm((1280,), eps=1e-05, elementwise_affine=True)
      (mlp): Sequential(
        (c_fc): Linear(in_features=1280, out_features=5120, bias=True)
        (gelu): GELU(approximate=none)
        (c_proj): Linear(in_features=5120, out_features=1280, bias=True)
      )
      (ls_2): Identity()
    )
    (12): ResidualAttentionBlock(
      (ln_1): LayerNorm((1280,), eps=1e-05, elementwise_affine=True)
      (attn): MultiheadAttention(
        (out_proj): NonDynamicallyQuantizableLinear(in_features=1280, out_features=1280, bias=True)
      )
      (ls_1): Identity()
      (ln_2): LayerNorm((1280,), eps=1e-05, elementwise_affine=True)
      (mlp): Sequential(
        (c_fc): Linear(in_features=1280, out_features=5120, bias=True)
        (gelu): GELU(approximate=none)
        (c_proj): Linear(in_features=5120, out_features=1280, bias=True)
      )
      (ls_2): Identity()
    )
    (13): ResidualAttentionBlock(
      (ln_1): LayerNorm((1280,), eps=1e-05, elementwise_affine=True)
      (attn): MultiheadAttention(
        (out_proj): NonDynamicallyQuantizableLinear(in_features=1280, out_features=1280, bias=True)
      )
      (ls_1): Identity()
      (ln_2): LayerNorm((1280,), eps=1e-05, elementwise_affine=True)
      (mlp): Sequential(
        (c_fc): Linear(in_features=1280, out_features=5120, bias=True)
        (gelu): GELU(approximate=none)
        (c_proj): Linear(in_features=5120, out_features=1280, bias=True)
      )
      (ls_2): Identity()
    )
    (14): ResidualAttentionBlock(
      (ln_1): LayerNorm((1280,), eps=1e-05, elementwise_affine=True)
      (attn): MultiheadAttention(
        (out_proj): NonDynamicallyQuantizableLinear(in_features=1280, out_features=1280, bias=True)
      )
      (ls_1): Identity()
      (ln_2): LayerNorm((1280,), eps=1e-05, elementwise_affine=True)
      (mlp): Sequential(
        (c_fc): Linear(in_features=1280, out_features=5120, bias=True)
        (gelu): GELU(approximate=none)
        (c_proj): Linear(in_features=5120, out_features=1280, bias=True)
      )
      (ls_2): Identity()
    )
    (15): ResidualAttentionBlock(
      (ln_1): LayerNorm((1280,), eps=1e-05, elementwise_affine=True)
      (attn): MultiheadAttention(
        (out_proj): NonDynamicallyQuantizableLinear(in_features=1280, out_features=1280, bias=True)
      )
      (ls_1): Identity()
      (ln_2): LayerNorm((1280,), eps=1e-05, elementwise_affine=True)
      (mlp): Sequential(
        (c_fc): Linear(in_features=1280, out_features=5120, bias=True)
        (gelu): GELU(approximate=none)
        (c_proj): Linear(in_features=5120, out_features=1280, bias=True)
      )
      (ls_2): Identity()
    )
    (16): ResidualAttentionBlock(
      (ln_1): LayerNorm((1280,), eps=1e-05, elementwise_affine=True)
      (attn): MultiheadAttention(
        (out_proj): NonDynamicallyQuantizableLinear(in_features=1280, out_features=1280, bias=True)
      )
      (ls_1): Identity()
      (ln_2): LayerNorm((1280,), eps=1e-05, elementwise_affine=True)
      (mlp): Sequential(
        (c_fc): Linear(in_features=1280, out_features=5120, bias=True)
        (gelu): GELU(approximate=none)
        (c_proj): Linear(in_features=5120, out_features=1280, bias=True)
      )
      (ls_2): Identity()
    )
    (17): ResidualAttentionBlock(
      (ln_1): LayerNorm((1280,), eps=1e-05, elementwise_affine=True)
      (attn): MultiheadAttention(
        (out_proj): NonDynamicallyQuantizableLinear(in_features=1280, out_features=1280, bias=True)
      )
      (ls_1): Identity()
      (ln_2): LayerNorm((1280,), eps=1e-05, elementwise_affine=True)
      (mlp): Sequential(
        (c_fc): Linear(in_features=1280, out_features=5120, bias=True)
        (gelu): GELU(approximate=none)
        (c_proj): Linear(in_features=5120, out_features=1280, bias=True)
      )
      (ls_2): Identity()
    )
    (18): ResidualAttentionBlock(
      (ln_1): LayerNorm((1280,), eps=1e-05, elementwise_affine=True)
      (attn): MultiheadAttention(
        (out_proj): NonDynamicallyQuantizableLinear(in_features=1280, out_features=1280, bias=True)
      )
      (ls_1): Identity()
      (ln_2): LayerNorm((1280,), eps=1e-05, elementwise_affine=True)
      (mlp): Sequential(
        (c_fc): Linear(in_features=1280, out_features=5120, bias=True)
        (gelu): GELU(approximate=none)
        (c_proj): Linear(in_features=5120, out_features=1280, bias=True)
      )
      (ls_2): Identity()
    )
    (19): ResidualAttentionBlock(
      (ln_1): LayerNorm((1280,), eps=1e-05, elementwise_affine=True)
      (attn): MultiheadAttention(
        (out_proj): NonDynamicallyQuantizableLinear(in_features=1280, out_features=1280, bias=True)
      )
      (ls_1): Identity()
      (ln_2): LayerNorm((1280,), eps=1e-05, elementwise_affine=True)
      (mlp): Sequential(
        (c_fc): Linear(in_features=1280, out_features=5120, bias=True)
        (gelu): GELU(approximate=none)
        (c_proj): Linear(in_features=5120, out_features=1280, bias=True)
      )
      (ls_2): Identity()
    )
    (20): ResidualAttentionBlock(
      (ln_1): LayerNorm((1280,), eps=1e-05, elementwise_affine=True)
      (attn): MultiheadAttention(
        (out_proj): NonDynamicallyQuantizableLinear(in_features=1280, out_features=1280, bias=True)
      )
      (ls_1): Identity()
      (ln_2): LayerNorm((1280,), eps=1e-05, elementwise_affine=True)
      (mlp): Sequential(
        (c_fc): Linear(in_features=1280, out_features=5120, bias=True)
        (gelu): GELU(approximate=none)
        (c_proj): Linear(in_features=5120, out_features=1280, bias=True)
      )
      (ls_2): Identity()
    )
    (21): ResidualAttentionBlock(
      (ln_1): LayerNorm((1280,), eps=1e-05, elementwise_affine=True)
      (attn): MultiheadAttention(
        (out_proj): NonDynamicallyQuantizableLinear(in_features=1280, out_features=1280, bias=True)
      )
      (ls_1): Identity()
      (ln_2): LayerNorm((1280,), eps=1e-05, elementwise_affine=True)
      (mlp): Sequential(
        (c_fc): Linear(in_features=1280, out_features=5120, bias=True)
        (gelu): GELU(approximate=none)
        (c_proj): Linear(in_features=5120, out_features=1280, bias=True)
      )
      (ls_2): Identity()
    )
    (22): ResidualAttentionBlock(
      (ln_1): LayerNorm((1280,), eps=1e-05, elementwise_affine=True)
      (attn): MultiheadAttention(
        (out_proj): NonDynamicallyQuantizableLinear(in_features=1280, out_features=1280, bias=True)
      )
      (ls_1): Identity()
      (ln_2): LayerNorm((1280,), eps=1e-05, elementwise_affine=True)
      (mlp): Sequential(
        (c_fc): Linear(in_features=1280, out_features=5120, bias=True)
        (gelu): GELU(approximate=none)
        (c_proj): Linear(in_features=5120, out_features=1280, bias=True)
      )
      (ls_2): Identity()
    )
    (23): ResidualAttentionBlock(
      (ln_1): LayerNorm((1280,), eps=1e-05, elementwise_affine=True)
      (attn): MultiheadAttention(
        (out_proj): NonDynamicallyQuantizableLinear(in_features=1280, out_features=1280, bias=True)
      )
      (ls_1): Identity()
      (ln_2): LayerNorm((1280,), eps=1e-05, elementwise_affine=True)
      (mlp): Sequential(
        (c_fc): Linear(in_features=1280, out_features=5120, bias=True)
        (gelu): GELU(approximate=none)
        (c_proj): Linear(in_features=5120, out_features=1280, bias=True)
      )
      (ls_2): Identity()
    )
    (24): ResidualAttentionBlock(
      (ln_1): LayerNorm((1280,), eps=1e-05, elementwise_affine=True)
      (attn): MultiheadAttention(
        (out_proj): NonDynamicallyQuantizableLinear(in_features=1280, out_features=1280, bias=True)
      )
      (ls_1): Identity()
      (ln_2): LayerNorm((1280,), eps=1e-05, elementwise_affine=True)
      (mlp): Sequential(
        (c_fc): Linear(in_features=1280, out_features=5120, bias=True)
        (gelu): GELU(approximate=none)
        (c_proj): Linear(in_features=5120, out_features=1280, bias=True)
      )
      (ls_2): Identity()
    )
    (25): ResidualAttentionBlock(
      (ln_1): LayerNorm((1280,), eps=1e-05, elementwise_affine=True)
      (attn): MultiheadAttention(
        (out_proj): NonDynamicallyQuantizableLinear(in_features=1280, out_features=1280, bias=True)
      )
      (ls_1): Identity()
      (ln_2): LayerNorm((1280,), eps=1e-05, elementwise_affine=True)
      (mlp): Sequential(
        (c_fc): Linear(in_features=1280, out_features=5120, bias=True)
        (gelu): GELU(approximate=none)
        (c_proj): Linear(in_features=5120, out_features=1280, bias=True)
      )
      (ls_2): Identity()
    )
    (26): ResidualAttentionBlock(
      (ln_1): LayerNorm((1280,), eps=1e-05, elementwise_affine=True)
      (attn): MultiheadAttention(
        (out_proj): NonDynamicallyQuantizableLinear(in_features=1280, out_features=1280, bias=True)
      )
      (ls_1): Identity()
      (ln_2): LayerNorm((1280,), eps=1e-05, elementwise_affine=True)
      (mlp): Sequential(
        (c_fc): Linear(in_features=1280, out_features=5120, bias=True)
        (gelu): GELU(approximate=none)
        (c_proj): Linear(in_features=5120, out_features=1280, bias=True)
      )
      (ls_2): Identity()
    )
    (27): ResidualAttentionBlock(
      (ln_1): LayerNorm((1280,), eps=1e-05, elementwise_affine=True)
      (attn): MultiheadAttention(
        (out_proj): NonDynamicallyQuantizableLinear(in_features=1280, out_features=1280, bias=True)
      )
      (ls_1): Identity()
      (ln_2): LayerNorm((1280,), eps=1e-05, elementwise_affine=True)
      (mlp): Sequential(
        (c_fc): Linear(in_features=1280, out_features=5120, bias=True)
        (gelu): GELU(approximate=none)
        (c_proj): Linear(in_features=5120, out_features=1280, bias=True)
      )
      (ls_2): Identity()
    )
    (28): ResidualAttentionBlock(
      (ln_1): LayerNorm((1280,), eps=1e-05, elementwise_affine=True)
      (attn): MultiheadAttention(
        (out_proj): NonDynamicallyQuantizableLinear(in_features=1280, out_features=1280, bias=True)
      )
      (ls_1): Identity()
      (ln_2): LayerNorm((1280,), eps=1e-05, elementwise_affine=True)
      (mlp): Sequential(
        (c_fc): Linear(in_features=1280, out_features=5120, bias=True)
        (gelu): GELU(approximate=none)
        (c_proj): Linear(in_features=5120, out_features=1280, bias=True)
      )
      (ls_2): Identity()
    )
    (29): ResidualAttentionBlock(
      (ln_1): LayerNorm((1280,), eps=1e-05, elementwise_affine=True)
      (attn): MultiheadAttention(
        (out_proj): NonDynamicallyQuantizableLinear(in_features=1280, out_features=1280, bias=True)
      )
      (ls_1): Identity()
      (ln_2): LayerNorm((1280,), eps=1e-05, elementwise_affine=True)
      (mlp): Sequential(
        (c_fc): Linear(in_features=1280, out_features=5120, bias=True)
        (gelu): GELU(approximate=none)
        (c_proj): Linear(in_features=5120, out_features=1280, bias=True)
      )
      (ls_2): Identity()
    )
    (30): ResidualAttentionBlock(
      (ln_1): LayerNorm((1280,), eps=1e-05, elementwise_affine=True)
      (attn): MultiheadAttention(
        (out_proj): NonDynamicallyQuantizableLinear(in_features=1280, out_features=1280, bias=True)
      )
      (ls_1): Identity()
      (ln_2): LayerNorm((1280,), eps=1e-05, elementwise_affine=True)
      (mlp): Sequential(
        (c_fc): Linear(in_features=1280, out_features=5120, bias=True)
        (gelu): GELU(approximate=none)
        (c_proj): Linear(in_features=5120, out_features=1280, bias=True)
      )
      (ls_2): Identity()
    )
    (31): ResidualAttentionBlock(
      (ln_1): LayerNorm((1280,), eps=1e-05, elementwise_affine=True)
      (attn): MultiheadAttention(
        (out_proj): NonDynamicallyQuantizableLinear(in_features=1280, out_features=1280, bias=True)
      )
      (ls_1): Identity()
      (ln_2): LayerNorm((1280,), eps=1e-05, elementwise_affine=True)
      (mlp): Sequential(
        (c_fc): Linear(in_features=1280, out_features=5120, bias=True)
        (gelu): GELU(approximate=none)
        (c_proj): Linear(in_features=5120, out_features=1280, bias=True)
      )
      (ls_2): Identity()
    )
  )
)
self.transformer size is 629678080
visual size 632076800
visual tower size is 632076800
visual size 632076800
visual tower size is 632076800
Transformer(
  (resblocks): ModuleList(
    (0): ResidualAttentionBlock(
      (ln_1): LayerNorm((1280,), eps=1e-05, elementwise_affine=True)
      (attn): MultiheadAttention(
        (out_proj): NonDynamicallyQuantizableLinear(in_features=1280, out_features=1280, bias=True)
      )
      (ls_1): Identity()
      (ln_2): LayerNorm((1280,), eps=1e-05, elementwise_affine=True)
      (mlp): Sequential(
        (c_fc): Linear(in_features=1280, out_features=5120, bias=True)
        (gelu): GELU(approximate=none)
        (c_proj): Linear(in_features=5120, out_features=1280, bias=True)
      )
      (ls_2): Identity()
    )
    (1): ResidualAttentionBlock(
      (ln_1): LayerNorm((1280,), eps=1e-05, elementwise_affine=True)
      (attn): MultiheadAttention(
        (out_proj): NonDynamicallyQuantizableLinear(in_features=1280, out_features=1280, bias=True)
      )
      (ls_1): Identity()
      (ln_2): LayerNorm((1280,), eps=1e-05, elementwise_affine=True)
      (mlp): Sequential(
        (c_fc): Linear(in_features=1280, out_features=5120, bias=True)
        (gelu): GELU(approximate=none)
        (c_proj): Linear(in_features=5120, out_features=1280, bias=True)
      )
      (ls_2): Identity()
    )
    (2): ResidualAttentionBlock(
      (ln_1): LayerNorm((1280,), eps=1e-05, elementwise_affine=True)
      (attn): MultiheadAttention(
        (out_proj): NonDynamicallyQuantizableLinear(in_features=1280, out_features=1280, bias=True)
      )
      (ls_1): Identity()
      (ln_2): LayerNorm((1280,), eps=1e-05, elementwise_affine=True)
      (mlp): Sequential(
        (c_fc): Linear(in_features=1280, out_features=5120, bias=True)
        (gelu): GELU(approximate=none)
        (c_proj): Linear(in_features=5120, out_features=1280, bias=True)
      )
      (ls_2): Identity()
    )
    (3): ResidualAttentionBlock(
      (ln_1): LayerNorm((1280,), eps=1e-05, elementwise_affine=True)
      (attn): MultiheadAttention(
        (out_proj): NonDynamicallyQuantizableLinear(in_features=1280, out_features=1280, bias=True)
      )
      (ls_1): Identity()
      (ln_2): LayerNorm((1280,), eps=1e-05, elementwise_affine=True)
      (mlp): Sequential(
        (c_fc): Linear(in_features=1280, out_features=5120, bias=True)
        (gelu): GELU(approximate=none)
        (c_proj): Linear(in_features=5120, out_features=1280, bias=True)
      )
      (ls_2): Identity()
    )
    (4): ResidualAttentionBlock(
      (ln_1): LayerNorm((1280,), eps=1e-05, elementwise_affine=True)
      (attn): MultiheadAttention(
        (out_proj): NonDynamicallyQuantizableLinear(in_features=1280, out_features=1280, bias=True)
      )
      (ls_1): Identity()
      (ln_2): LayerNorm((1280,), eps=1e-05, elementwise_affine=True)
      (mlp): Sequential(
        (c_fc): Linear(in_features=1280, out_features=5120, bias=True)
        (gelu): GELU(approximate=none)
        (c_proj): Linear(in_features=5120, out_features=1280, bias=True)
      )
      (ls_2): Identity()
    )
    (5): ResidualAttentionBlock(
      (ln_1): LayerNorm((1280,), eps=1e-05, elementwise_affine=True)
      (attn): MultiheadAttention(
        (out_proj): NonDynamicallyQuantizableLinear(in_features=1280, out_features=1280, bias=True)
      )
      (ls_1): Identity()
      (ln_2): LayerNorm((1280,), eps=1e-05, elementwise_affine=True)
      (mlp): Sequential(
        (c_fc): Linear(in_features=1280, out_features=5120, bias=True)
        (gelu): GELU(approximate=none)
        (c_proj): Linear(in_features=5120, out_features=1280, bias=True)
      )
      (ls_2): Identity()
    )
    (6): ResidualAttentionBlock(
      (ln_1): LayerNorm((1280,), eps=1e-05, elementwise_affine=True)
      (attn): MultiheadAttention(
        (out_proj): NonDynamicallyQuantizableLinear(in_features=1280, out_features=1280, bias=True)
      )
      (ls_1): Identity()
      (ln_2): LayerNorm((1280,), eps=1e-05, elementwise_affine=True)
      (mlp): Sequential(
        (c_fc): Linear(in_features=1280, out_features=5120, bias=True)
        (gelu): GELU(approximate=none)
        (c_proj): Linear(in_features=5120, out_features=1280, bias=True)
      )
      (ls_2): Identity()
    )
    (7): ResidualAttentionBlock(
      (ln_1): LayerNorm((1280,), eps=1e-05, elementwise_affine=True)
      (attn): MultiheadAttention(
        (out_proj): NonDynamicallyQuantizableLinear(in_features=1280, out_features=1280, bias=True)
      )
      (ls_1): Identity()
      (ln_2): LayerNorm((1280,), eps=1e-05, elementwise_affine=True)
      (mlp): Sequential(
        (c_fc): Linear(in_features=1280, out_features=5120, bias=True)
        (gelu): GELU(approximate=none)
        (c_proj): Linear(in_features=5120, out_features=1280, bias=True)
      )
      (ls_2): Identity()
    )
    (8): ResidualAttentionBlock(
      (ln_1): LayerNorm((1280,), eps=1e-05, elementwise_affine=True)
      (attn): MultiheadAttention(
        (out_proj): NonDynamicallyQuantizableLinear(in_features=1280, out_features=1280, bias=True)
      )
      (ls_1): Identity()
      (ln_2): LayerNorm((1280,), eps=1e-05, elementwise_affine=True)
      (mlp): Sequential(
        (c_fc): Linear(in_features=1280, out_features=5120, bias=True)
        (gelu): GELU(approximate=none)
        (c_proj): Linear(in_features=5120, out_features=1280, bias=True)
      )
      (ls_2): Identity()
    )
    (9): ResidualAttentionBlock(
      (ln_1): LayerNorm((1280,), eps=1e-05, elementwise_affine=True)
      (attn): MultiheadAttention(
        (out_proj): NonDynamicallyQuantizableLinear(in_features=1280, out_features=1280, bias=True)
      )
      (ls_1): Identity()
      (ln_2): LayerNorm((1280,), eps=1e-05, elementwise_affine=True)
      (mlp): Sequential(
        (c_fc): Linear(in_features=1280, out_features=5120, bias=True)
        (gelu): GELU(approximate=none)
        (c_proj): Linear(in_features=5120, out_features=1280, bias=True)
      )
      (ls_2): Identity()
    )
    (10): ResidualAttentionBlock(
      (ln_1): LayerNorm((1280,), eps=1e-05, elementwise_affine=True)
      (attn): MultiheadAttention(
        (out_proj): NonDynamicallyQuantizableLinear(in_features=1280, out_features=1280, bias=True)
      )
      (ls_1): Identity()
      (ln_2): LayerNorm((1280,), eps=1e-05, elementwise_affine=True)
      (mlp): Sequential(
        (c_fc): Linear(in_features=1280, out_features=5120, bias=True)
        (gelu): GELU(approximate=none)
        (c_proj): Linear(in_features=5120, out_features=1280, bias=True)
      )
      (ls_2): Identity()
    )
    (11): ResidualAttentionBlock(
      (ln_1): LayerNorm((1280,), eps=1e-05, elementwise_affine=True)
      (attn): MultiheadAttention(
        (out_proj): NonDynamicallyQuantizableLinear(in_features=1280, out_features=1280, bias=True)
      )
      (ls_1): Identity()
      (ln_2): LayerNorm((1280,), eps=1e-05, elementwise_affine=True)
      (mlp): Sequential(
        (c_fc): Linear(in_features=1280, out_features=5120, bias=True)
        (gelu): GELU(approximate=none)
        (c_proj): Linear(in_features=5120, out_features=1280, bias=True)
      )
      (ls_2): Identity()
    )
    (12): ResidualAttentionBlock(
      (ln_1): LayerNorm((1280,), eps=1e-05, elementwise_affine=True)
      (attn): MultiheadAttention(
        (out_proj): NonDynamicallyQuantizableLinear(in_features=1280, out_features=1280, bias=True)
      )
      (ls_1): Identity()
      (ln_2): LayerNorm((1280,), eps=1e-05, elementwise_affine=True)
      (mlp): Sequential(
        (c_fc): Linear(in_features=1280, out_features=5120, bias=True)
        (gelu): GELU(approximate=none)
        (c_proj): Linear(in_features=5120, out_features=1280, bias=True)
      )
      (ls_2): Identity()
    )
    (13): ResidualAttentionBlock(
      (ln_1): LayerNorm((1280,), eps=1e-05, elementwise_affine=True)
      (attn): MultiheadAttention(
        (out_proj): NonDynamicallyQuantizableLinear(in_features=1280, out_features=1280, bias=True)
      )
      (ls_1): Identity()
      (ln_2): LayerNorm((1280,), eps=1e-05, elementwise_affine=True)
      (mlp): Sequential(
        (c_fc): Linear(in_features=1280, out_features=5120, bias=True)
        (gelu): GELU(approximate=none)
        (c_proj): Linear(in_features=5120, out_features=1280, bias=True)
      )
      (ls_2): Identity()
    )
    (14): ResidualAttentionBlock(
      (ln_1): LayerNorm((1280,), eps=1e-05, elementwise_affine=True)
      (attn): MultiheadAttention(
        (out_proj): NonDynamicallyQuantizableLinear(in_features=1280, out_features=1280, bias=True)
      )
      (ls_1): Identity()
      (ln_2): LayerNorm((1280,), eps=1e-05, elementwise_affine=True)
      (mlp): Sequential(
        (c_fc): Linear(in_features=1280, out_features=5120, bias=True)
        (gelu): GELU(approximate=none)
        (c_proj): Linear(in_features=5120, out_features=1280, bias=True)
      )
      (ls_2): Identity()
    )
    (15): ResidualAttentionBlock(
      (ln_1): LayerNorm((1280,), eps=1e-05, elementwise_affine=True)
      (attn): MultiheadAttention(
        (out_proj): NonDynamicallyQuantizableLinear(in_features=1280, out_features=1280, bias=True)
      )
      (ls_1): Identity()
      (ln_2): LayerNorm((1280,), eps=1e-05, elementwise_affine=True)
      (mlp): Sequential(
        (c_fc): Linear(in_features=1280, out_features=5120, bias=True)
        (gelu): GELU(approximate=none)
        (c_proj): Linear(in_features=5120, out_features=1280, bias=True)
      )
      (ls_2): Identity()
    )
    (16): ResidualAttentionBlock(
      (ln_1): LayerNorm((1280,), eps=1e-05, elementwise_affine=True)
      (attn): MultiheadAttention(
        (out_proj): NonDynamicallyQuantizableLinear(in_features=1280, out_features=1280, bias=True)
      )
      (ls_1): Identity()
      (ln_2): LayerNorm((1280,), eps=1e-05, elementwise_affine=True)
      (mlp): Sequential(
        (c_fc): Linear(in_features=1280, out_features=5120, bias=True)
        (gelu): GELU(approximate=none)
        (c_proj): Linear(in_features=5120, out_features=1280, bias=True)
      )
      (ls_2): Identity()
    )
    (17): ResidualAttentionBlock(
      (ln_1): LayerNorm((1280,), eps=1e-05, elementwise_affine=True)
      (attn): MultiheadAttention(
        (out_proj): NonDynamicallyQuantizableLinear(in_features=1280, out_features=1280, bias=True)
      )
      (ls_1): Identity()
      (ln_2): LayerNorm((1280,), eps=1e-05, elementwise_affine=True)
      (mlp): Sequential(
        (c_fc): Linear(in_features=1280, out_features=5120, bias=True)
        (gelu): GELU(approximate=none)
        (c_proj): Linear(in_features=5120, out_features=1280, bias=True)
      )
      (ls_2): Identity()
    )
    (18): ResidualAttentionBlock(
      (ln_1): LayerNorm((1280,), eps=1e-05, elementwise_affine=True)
      (attn): MultiheadAttention(
        (out_proj): NonDynamicallyQuantizableLinear(in_features=1280, out_features=1280, bias=True)
      )
      (ls_1): Identity()
      (ln_2): LayerNorm((1280,), eps=1e-05, elementwise_affine=True)
      (mlp): Sequential(
        (c_fc): Linear(in_features=1280, out_features=5120, bias=True)
        (gelu): GELU(approximate=none)
        (c_proj): Linear(in_features=5120, out_features=1280, bias=True)
      )
      (ls_2): Identity()
    )
    (19): ResidualAttentionBlock(
      (ln_1): LayerNorm((1280,), eps=1e-05, elementwise_affine=True)
      (attn): MultiheadAttention(
        (out_proj): NonDynamicallyQuantizableLinear(in_features=1280, out_features=1280, bias=True)
      )
      (ls_1): Identity()
      (ln_2): LayerNorm((1280,), eps=1e-05, elementwise_affine=True)
      (mlp): Sequential(
        (c_fc): Linear(in_features=1280, out_features=5120, bias=True)
        (gelu): GELU(approximate=none)
        (c_proj): Linear(in_features=5120, out_features=1280, bias=True)
      )
      (ls_2): Identity()
    )
    (20): ResidualAttentionBlock(
      (ln_1): LayerNorm((1280,), eps=1e-05, elementwise_affine=True)
      (attn): MultiheadAttention(
        (out_proj): NonDynamicallyQuantizableLinear(in_features=1280, out_features=1280, bias=True)
      )
      (ls_1): Identity()
      (ln_2): LayerNorm((1280,), eps=1e-05, elementwise_affine=True)
      (mlp): Sequential(
        (c_fc): Linear(in_features=1280, out_features=5120, bias=True)
        (gelu): GELU(approximate=none)
        (c_proj): Linear(in_features=5120, out_features=1280, bias=True)
      )
      (ls_2): Identity()
    )
    (21): ResidualAttentionBlock(
      (ln_1): LayerNorm((1280,), eps=1e-05, elementwise_affine=True)
      (attn): MultiheadAttention(
        (out_proj): NonDynamicallyQuantizableLinear(in_features=1280, out_features=1280, bias=True)
      )
      (ls_1): Identity()
      (ln_2): LayerNorm((1280,), eps=1e-05, elementwise_affine=True)
      (mlp): Sequential(
        (c_fc): Linear(in_features=1280, out_features=5120, bias=True)
        (gelu): GELU(approximate=none)
        (c_proj): Linear(in_features=5120, out_features=1280, bias=True)
      )
      (ls_2): Identity()
    )
    (22): ResidualAttentionBlock(
      (ln_1): LayerNorm((1280,), eps=1e-05, elementwise_affine=True)
      (attn): MultiheadAttention(
        (out_proj): NonDynamicallyQuantizableLinear(in_features=1280, out_features=1280, bias=True)
      )
      (ls_1): Identity()
      (ln_2): LayerNorm((1280,), eps=1e-05, elementwise_affine=True)
      (mlp): Sequential(
        (c_fc): Linear(in_features=1280, out_features=5120, bias=True)
        (gelu): GELU(approximate=none)
        (c_proj): Linear(in_features=5120, out_features=1280, bias=True)
      )
      (ls_2): Identity()
    )
    (23): ResidualAttentionBlock(
      (ln_1): LayerNorm((1280,), eps=1e-05, elementwise_affine=True)
      (attn): MultiheadAttention(
        (out_proj): NonDynamicallyQuantizableLinear(in_features=1280, out_features=1280, bias=True)
      )
      (ls_1): Identity()
      (ln_2): LayerNorm((1280,), eps=1e-05, elementwise_affine=True)
      (mlp): Sequential(
        (c_fc): Linear(in_features=1280, out_features=5120, bias=True)
        (gelu): GELU(approximate=none)
        (c_proj): Linear(in_features=5120, out_features=1280, bias=True)
      )
      (ls_2): Identity()
    )
    (24): ResidualAttentionBlock(
      (ln_1): LayerNorm((1280,), eps=1e-05, elementwise_affine=True)
      (attn): MultiheadAttention(
        (out_proj): NonDynamicallyQuantizableLinear(in_features=1280, out_features=1280, bias=True)
      )
      (ls_1): Identity()
      (ln_2): LayerNorm((1280,), eps=1e-05, elementwise_affine=True)
      (mlp): Sequential(
        (c_fc): Linear(in_features=1280, out_features=5120, bias=True)
        (gelu): GELU(approximate=none)
        (c_proj): Linear(in_features=5120, out_features=1280, bias=True)
      )
      (ls_2): Identity()
    )
    (25): ResidualAttentionBlock(
      (ln_1): LayerNorm((1280,), eps=1e-05, elementwise_affine=True)
      (attn): MultiheadAttention(
        (out_proj): NonDynamicallyQuantizableLinear(in_features=1280, out_features=1280, bias=True)
      )
      (ls_1): Identity()
      (ln_2): LayerNorm((1280,), eps=1e-05, elementwise_affine=True)
      (mlp): Sequential(
        (c_fc): Linear(in_features=1280, out_features=5120, bias=True)
        (gelu): GELU(approximate=none)
        (c_proj): Linear(in_features=5120, out_features=1280, bias=True)
      )
      (ls_2): Identity()
    )
    (26): ResidualAttentionBlock(
      (ln_1): LayerNorm((1280,), eps=1e-05, elementwise_affine=True)
      (attn): MultiheadAttention(
        (out_proj): NonDynamicallyQuantizableLinear(in_features=1280, out_features=1280, bias=True)
      )
      (ls_1): Identity()
      (ln_2): LayerNorm((1280,), eps=1e-05, elementwise_affine=True)
      (mlp): Sequential(
        (c_fc): Linear(in_features=1280, out_features=5120, bias=True)
        (gelu): GELU(approximate=none)
        (c_proj): Linear(in_features=5120, out_features=1280, bias=True)
      )
      (ls_2): Identity()
    )
    (27): ResidualAttentionBlock(
      (ln_1): LayerNorm((1280,), eps=1e-05, elementwise_affine=True)
      (attn): MultiheadAttention(
        (out_proj): NonDynamicallyQuantizableLinear(in_features=1280, out_features=1280, bias=True)
      )
      (ls_1): Identity()
      (ln_2): LayerNorm((1280,), eps=1e-05, elementwise_affine=True)
      (mlp): Sequential(
        (c_fc): Linear(in_features=1280, out_features=5120, bias=True)
        (gelu): GELU(approximate=none)
        (c_proj): Linear(in_features=5120, out_features=1280, bias=True)
      )
      (ls_2): Identity()
    )
    (28): ResidualAttentionBlock(
      (ln_1): LayerNorm((1280,), eps=1e-05, elementwise_affine=True)
      (attn): MultiheadAttention(
        (out_proj): NonDynamicallyQuantizableLinear(in_features=1280, out_features=1280, bias=True)
      )
      (ls_1): Identity()
      (ln_2): LayerNorm((1280,), eps=1e-05, elementwise_affine=True)
      (mlp): Sequential(
        (c_fc): Linear(in_features=1280, out_features=5120, bias=True)
        (gelu): GELU(approximate=none)
        (c_proj): Linear(in_features=5120, out_features=1280, bias=True)
      )
      (ls_2): Identity()
    )
    (29): ResidualAttentionBlock(
      (ln_1): LayerNorm((1280,), eps=1e-05, elementwise_affine=True)
      (attn): MultiheadAttention(
        (out_proj): NonDynamicallyQuantizableLinear(in_features=1280, out_features=1280, bias=True)
      )
      (ls_1): Identity()
      (ln_2): LayerNorm((1280,), eps=1e-05, elementwise_affine=True)
      (mlp): Sequential(
        (c_fc): Linear(in_features=1280, out_features=5120, bias=True)
        (gelu): GELU(approximate=none)
        (c_proj): Linear(in_features=5120, out_features=1280, bias=True)
      )
      (ls_2): Identity()
    )
    (30): ResidualAttentionBlock(
      (ln_1): LayerNorm((1280,), eps=1e-05, elementwise_affine=True)
      (attn): MultiheadAttention(
        (out_proj): NonDynamicallyQuantizableLinear(in_features=1280, out_features=1280, bias=True)
      )
      (ls_1): Identity()
      (ln_2): LayerNorm((1280,), eps=1e-05, elementwise_affine=True)
      (mlp): Sequential(
        (c_fc): Linear(in_features=1280, out_features=5120, bias=True)
        (gelu): GELU(approximate=none)
        (c_proj): Linear(in_features=5120, out_features=1280, bias=True)
      )
      (ls_2): Identity()
    )
    (31): ResidualAttentionBlock(
      (ln_1): LayerNorm((1280,), eps=1e-05, elementwise_affine=True)
      (attn): MultiheadAttention(
        (out_proj): NonDynamicallyQuantizableLinear(in_features=1280, out_features=1280, bias=True)
      )
      (ls_1): Identity()
      (ln_2): LayerNorm((1280,), eps=1e-05, elementwise_affine=True)
      (mlp): Sequential(
        (c_fc): Linear(in_features=1280, out_features=5120, bias=True)
        (gelu): GELU(approximate=none)
        (c_proj): Linear(in_features=5120, out_features=1280, bias=True)
      )
      (ls_2): Identity()
    )
  )
)
self.transformer size is 629678080
visual size 632076800
visual tower size is 632076800
Transformer(
  (resblocks): ModuleList(
    (0): ResidualAttentionBlock(
      (ln_1): LayerNorm((1280,), eps=1e-05, elementwise_affine=True)
      (attn): MultiheadAttention(
        (out_proj): NonDynamicallyQuantizableLinear(in_features=1280, out_features=1280, bias=True)
      )
      (ls_1): Identity()
      (ln_2): LayerNorm((1280,), eps=1e-05, elementwise_affine=True)
      (mlp): Sequential(
        (c_fc): Linear(in_features=1280, out_features=5120, bias=True)
        (gelu): GELU(approximate=none)
        (c_proj): Linear(in_features=5120, out_features=1280, bias=True)
      )
      (ls_2): Identity()
    )
    (1): ResidualAttentionBlock(
      (ln_1): LayerNorm((1280,), eps=1e-05, elementwise_affine=True)
      (attn): MultiheadAttention(
        (out_proj): NonDynamicallyQuantizableLinear(in_features=1280, out_features=1280, bias=True)
      )
      (ls_1): Identity()
      (ln_2): LayerNorm((1280,), eps=1e-05, elementwise_affine=True)
      (mlp): Sequential(
        (c_fc): Linear(in_features=1280, out_features=5120, bias=True)
        (gelu): GELU(approximate=none)
        (c_proj): Linear(in_features=5120, out_features=1280, bias=True)
      )
      (ls_2): Identity()
    )
    (2): ResidualAttentionBlock(
      (ln_1): LayerNorm((1280,), eps=1e-05, elementwise_affine=True)
      (attn): MultiheadAttention(
        (out_proj): NonDynamicallyQuantizableLinear(in_features=1280, out_features=1280, bias=True)
      )
      (ls_1): Identity()
      (ln_2): LayerNorm((1280,), eps=1e-05, elementwise_affine=True)
      (mlp): Sequential(
        (c_fc): Linear(in_features=1280, out_features=5120, bias=True)
        (gelu): GELU(approximate=none)
        (c_proj): Linear(in_features=5120, out_features=1280, bias=True)
      )
      (ls_2): Identity()
    )
    (3): ResidualAttentionBlock(
      (ln_1): LayerNorm((1280,), eps=1e-05, elementwise_affine=True)
      (attn): MultiheadAttention(
        (out_proj): NonDynamicallyQuantizableLinear(in_features=1280, out_features=1280, bias=True)
      )
      (ls_1): Identity()
      (ln_2): LayerNorm((1280,), eps=1e-05, elementwise_affine=True)
      (mlp): Sequential(
        (c_fc): Linear(in_features=1280, out_features=5120, bias=True)
        (gelu): GELU(approximate=none)
        (c_proj): Linear(in_features=5120, out_features=1280, bias=True)
      )
      (ls_2): Identity()
    )
    (4): ResidualAttentionBlock(
      (ln_1): LayerNorm((1280,), eps=1e-05, elementwise_affine=True)
      (attn): MultiheadAttention(
        (out_proj): NonDynamicallyQuantizableLinear(in_features=1280, out_features=1280, bias=True)
      )
      (ls_1): Identity()
      (ln_2): LayerNorm((1280,), eps=1e-05, elementwise_affine=True)
      (mlp): Sequential(
        (c_fc): Linear(in_features=1280, out_features=5120, bias=True)
        (gelu): GELU(approximate=none)
        (c_proj): Linear(in_features=5120, out_features=1280, bias=True)
      )
      (ls_2): Identity()
    )
    (5): ResidualAttentionBlock(
      (ln_1): LayerNorm((1280,), eps=1e-05, elementwise_affine=True)
      (attn): MultiheadAttention(
        (out_proj): NonDynamicallyQuantizableLinear(in_features=1280, out_features=1280, bias=True)
      )
      (ls_1): Identity()
      (ln_2): LayerNorm((1280,), eps=1e-05, elementwise_affine=True)
      (mlp): Sequential(
        (c_fc): Linear(in_features=1280, out_features=5120, bias=True)
        (gelu): GELU(approximate=none)
        (c_proj): Linear(in_features=5120, out_features=1280, bias=True)
      )
      (ls_2): Identity()
    )
    (6): ResidualAttentionBlock(
      (ln_1): LayerNorm((1280,), eps=1e-05, elementwise_affine=True)
      (attn): MultiheadAttention(
        (out_proj): NonDynamicallyQuantizableLinear(in_features=1280, out_features=1280, bias=True)
      )
      (ls_1): Identity()
      (ln_2): LayerNorm((1280,), eps=1e-05, elementwise_affine=True)
      (mlp): Sequential(
        (c_fc): Linear(in_features=1280, out_features=5120, bias=True)
        (gelu): GELU(approximate=none)
        (c_proj): Linear(in_features=5120, out_features=1280, bias=True)
      )
      (ls_2): Identity()
    )
    (7): ResidualAttentionBlock(
      (ln_1): LayerNorm((1280,), eps=1e-05, elementwise_affine=True)
      (attn): MultiheadAttention(
        (out_proj): NonDynamicallyQuantizableLinear(in_features=1280, out_features=1280, bias=True)
      )
      (ls_1): Identity()
      (ln_2): LayerNorm((1280,), eps=1e-05, elementwise_affine=True)
      (mlp): Sequential(
        (c_fc): Linear(in_features=1280, out_features=5120, bias=True)
        (gelu): GELU(approximate=none)
        (c_proj): Linear(in_features=5120, out_features=1280, bias=True)
      )
      (ls_2): Identity()
    )
    (8): ResidualAttentionBlock(
      (ln_1): LayerNorm((1280,), eps=1e-05, elementwise_affine=True)
      (attn): MultiheadAttention(
        (out_proj): NonDynamicallyQuantizableLinear(in_features=1280, out_features=1280, bias=True)
      )
      (ls_1): Identity()
      (ln_2): LayerNorm((1280,), eps=1e-05, elementwise_affine=True)
      (mlp): Sequential(
        (c_fc): Linear(in_features=1280, out_features=5120, bias=True)
        (gelu): GELU(approximate=none)
        (c_proj): Linear(in_features=5120, out_features=1280, bias=True)
      )
      (ls_2): Identity()
    )
    (9): ResidualAttentionBlock(
      (ln_1): LayerNorm((1280,), eps=1e-05, elementwise_affine=True)
      (attn): MultiheadAttention(
        (out_proj): NonDynamicallyQuantizableLinear(in_features=1280, out_features=1280, bias=True)
      )
      (ls_1): Identity()
      (ln_2): LayerNorm((1280,), eps=1e-05, elementwise_affine=True)
      (mlp): Sequential(
        (c_fc): Linear(in_features=1280, out_features=5120, bias=True)
        (gelu): GELU(approximate=none)
        (c_proj): Linear(in_features=5120, out_features=1280, bias=True)
      )
      (ls_2): Identity()
    )
    (10): ResidualAttentionBlock(
      (ln_1): LayerNorm((1280,), eps=1e-05, elementwise_affine=True)
      (attn): MultiheadAttention(
        (out_proj): NonDynamicallyQuantizableLinear(in_features=1280, out_features=1280, bias=True)
      )
      (ls_1): Identity()
      (ln_2): LayerNorm((1280,), eps=1e-05, elementwise_affine=True)
      (mlp): Sequential(
        (c_fc): Linear(in_features=1280, out_features=5120, bias=True)
        (gelu): GELU(approximate=none)
        (c_proj): Linear(in_features=5120, out_features=1280, bias=True)
      )
      (ls_2): Identity()
    )
    (11): ResidualAttentionBlock(
      (ln_1): LayerNorm((1280,), eps=1e-05, elementwise_affine=True)
      (attn): MultiheadAttention(
        (out_proj): NonDynamicallyQuantizableLinear(in_features=1280, out_features=1280, bias=True)
      )
      (ls_1): Identity()
      (ln_2): LayerNorm((1280,), eps=1e-05, elementwise_affine=True)
      (mlp): Sequential(
        (c_fc): Linear(in_features=1280, out_features=5120, bias=True)
        (gelu): GELU(approximate=none)
        (c_proj): Linear(in_features=5120, out_features=1280, bias=True)
      )
      (ls_2): Identity()
    )
    (12): ResidualAttentionBlock(
      (ln_1): LayerNorm((1280,), eps=1e-05, elementwise_affine=True)
      (attn): MultiheadAttention(
        (out_proj): NonDynamicallyQuantizableLinear(in_features=1280, out_features=1280, bias=True)
      )
      (ls_1): Identity()
      (ln_2): LayerNorm((1280,), eps=1e-05, elementwise_affine=True)
      (mlp): Sequential(
        (c_fc): Linear(in_features=1280, out_features=5120, bias=True)
        (gelu): GELU(approximate=none)
        (c_proj): Linear(in_features=5120, out_features=1280, bias=True)
      )
      (ls_2): Identity()
    )
    (13): ResidualAttentionBlock(
      (ln_1): LayerNorm((1280,), eps=1e-05, elementwise_affine=True)
      (attn): MultiheadAttention(
        (out_proj): NonDynamicallyQuantizableLinear(in_features=1280, out_features=1280, bias=True)
      )
      (ls_1): Identity()
      (ln_2): LayerNorm((1280,), eps=1e-05, elementwise_affine=True)
      (mlp): Sequential(
        (c_fc): Linear(in_features=1280, out_features=5120, bias=True)
        (gelu): GELU(approximate=none)
        (c_proj): Linear(in_features=5120, out_features=1280, bias=True)
      )
      (ls_2): Identity()
    )
    (14): ResidualAttentionBlock(
      (ln_1): LayerNorm((1280,), eps=1e-05, elementwise_affine=True)
      (attn): MultiheadAttention(
        (out_proj): NonDynamicallyQuantizableLinear(in_features=1280, out_features=1280, bias=True)
      )
      (ls_1): Identity()
      (ln_2): LayerNorm((1280,), eps=1e-05, elementwise_affine=True)
      (mlp): Sequential(
        (c_fc): Linear(in_features=1280, out_features=5120, bias=True)
        (gelu): GELU(approximate=none)
        (c_proj): Linear(in_features=5120, out_features=1280, bias=True)
      )
      (ls_2): Identity()
    )
    (15): ResidualAttentionBlock(
      (ln_1): LayerNorm((1280,), eps=1e-05, elementwise_affine=True)
      (attn): MultiheadAttention(
        (out_proj): NonDynamicallyQuantizableLinear(in_features=1280, out_features=1280, bias=True)
      )
      (ls_1): Identity()
      (ln_2): LayerNorm((1280,), eps=1e-05, elementwise_affine=True)
      (mlp): Sequential(
        (c_fc): Linear(in_features=1280, out_features=5120, bias=True)
        (gelu): GELU(approximate=none)
        (c_proj): Linear(in_features=5120, out_features=1280, bias=True)
      )
      (ls_2): Identity()
    )
    (16): ResidualAttentionBlock(
      (ln_1): LayerNorm((1280,), eps=1e-05, elementwise_affine=True)
      (attn): MultiheadAttention(
        (out_proj): NonDynamicallyQuantizableLinear(in_features=1280, out_features=1280, bias=True)
      )
      (ls_1): Identity()
      (ln_2): LayerNorm((1280,), eps=1e-05, elementwise_affine=True)
      (mlp): Sequential(
        (c_fc): Linear(in_features=1280, out_features=5120, bias=True)
        (gelu): GELU(approximate=none)
        (c_proj): Linear(in_features=5120, out_features=1280, bias=True)
      )
      (ls_2): Identity()
    )
    (17): ResidualAttentionBlock(
      (ln_1): LayerNorm((1280,), eps=1e-05, elementwise_affine=True)
      (attn): MultiheadAttention(
        (out_proj): NonDynamicallyQuantizableLinear(in_features=1280, out_features=1280, bias=True)
      )
      (ls_1): Identity()
      (ln_2): LayerNorm((1280,), eps=1e-05, elementwise_affine=True)
      (mlp): Sequential(
        (c_fc): Linear(in_features=1280, out_features=5120, bias=True)
        (gelu): GELU(approximate=none)
        (c_proj): Linear(in_features=5120, out_features=1280, bias=True)
      )
      (ls_2): Identity()
    )
    (18): ResidualAttentionBlock(
      (ln_1): LayerNorm((1280,), eps=1e-05, elementwise_affine=True)
      (attn): MultiheadAttention(
        (out_proj): NonDynamicallyQuantizableLinear(in_features=1280, out_features=1280, bias=True)
      )
      (ls_1): Identity()
      (ln_2): LayerNorm((1280,), eps=1e-05, elementwise_affine=True)
      (mlp): Sequential(
        (c_fc): Linear(in_features=1280, out_features=5120, bias=True)
        (gelu): GELU(approximate=none)
        (c_proj): Linear(in_features=5120, out_features=1280, bias=True)
      )
      (ls_2): Identity()
    )
    (19): ResidualAttentionBlock(
      (ln_1): LayerNorm((1280,), eps=1e-05, elementwise_affine=True)
      (attn): MultiheadAttention(
        (out_proj): NonDynamicallyQuantizableLinear(in_features=1280, out_features=1280, bias=True)
      )
      (ls_1): Identity()
      (ln_2): LayerNorm((1280,), eps=1e-05, elementwise_affine=True)
      (mlp): Sequential(
        (c_fc): Linear(in_features=1280, out_features=5120, bias=True)
        (gelu): GELU(approximate=none)
        (c_proj): Linear(in_features=5120, out_features=1280, bias=True)
      )
      (ls_2): Identity()
    )
    (20): ResidualAttentionBlock(
      (ln_1): LayerNorm((1280,), eps=1e-05, elementwise_affine=True)
      (attn): MultiheadAttention(
        (out_proj): NonDynamicallyQuantizableLinear(in_features=1280, out_features=1280, bias=True)
      )
      (ls_1): Identity()
      (ln_2): LayerNorm((1280,), eps=1e-05, elementwise_affine=True)
      (mlp): Sequential(
        (c_fc): Linear(in_features=1280, out_features=5120, bias=True)
        (gelu): GELU(approximate=none)
        (c_proj): Linear(in_features=5120, out_features=1280, bias=True)
      )
      (ls_2): Identity()
    )
    (21): ResidualAttentionBlock(
      (ln_1): LayerNorm((1280,), eps=1e-05, elementwise_affine=True)
      (attn): MultiheadAttention(
        (out_proj): NonDynamicallyQuantizableLinear(in_features=1280, out_features=1280, bias=True)
      )
      (ls_1): Identity()
      (ln_2): LayerNorm((1280,), eps=1e-05, elementwise_affine=True)
      (mlp): Sequential(
        (c_fc): Linear(in_features=1280, out_features=5120, bias=True)
        (gelu): GELU(approximate=none)
        (c_proj): Linear(in_features=5120, out_features=1280, bias=True)
      )
      (ls_2): Identity()
    )
    (22): ResidualAttentionBlock(
      (ln_1): LayerNorm((1280,), eps=1e-05, elementwise_affine=True)
      (attn): MultiheadAttention(
        (out_proj): NonDynamicallyQuantizableLinear(in_features=1280, out_features=1280, bias=True)
      )
      (ls_1): Identity()
      (ln_2): LayerNorm((1280,), eps=1e-05, elementwise_affine=True)
      (mlp): Sequential(
        (c_fc): Linear(in_features=1280, out_features=5120, bias=True)
        (gelu): GELU(approximate=none)
        (c_proj): Linear(in_features=5120, out_features=1280, bias=True)
      )
      (ls_2): Identity()
    )
    (23): ResidualAttentionBlock(
      (ln_1): LayerNorm((1280,), eps=1e-05, elementwise_affine=True)
      (attn): MultiheadAttention(
        (out_proj): NonDynamicallyQuantizableLinear(in_features=1280, out_features=1280, bias=True)
      )
      (ls_1): Identity()
      (ln_2): LayerNorm((1280,), eps=1e-05, elementwise_affine=True)
      (mlp): Sequential(
        (c_fc): Linear(in_features=1280, out_features=5120, bias=True)
        (gelu): GELU(approximate=none)
        (c_proj): Linear(in_features=5120, out_features=1280, bias=True)
      )
      (ls_2): Identity()
    )
    (24): ResidualAttentionBlock(
      (ln_1): LayerNorm((1280,), eps=1e-05, elementwise_affine=True)
      (attn): MultiheadAttention(
        (out_proj): NonDynamicallyQuantizableLinear(in_features=1280, out_features=1280, bias=True)
      )
      (ls_1): Identity()
      (ln_2): LayerNorm((1280,), eps=1e-05, elementwise_affine=True)
      (mlp): Sequential(
        (c_fc): Linear(in_features=1280, out_features=5120, bias=True)
        (gelu): GELU(approximate=none)
        (c_proj): Linear(in_features=5120, out_features=1280, bias=True)
      )
      (ls_2): Identity()
    )
    (25): ResidualAttentionBlock(
      (ln_1): LayerNorm((1280,), eps=1e-05, elementwise_affine=True)
      (attn): MultiheadAttention(
        (out_proj): NonDynamicallyQuantizableLinear(in_features=1280, out_features=1280, bias=True)
      )
      (ls_1): Identity()
      (ln_2): LayerNorm((1280,), eps=1e-05, elementwise_affine=True)
      (mlp): Sequential(
        (c_fc): Linear(in_features=1280, out_features=5120, bias=True)
        (gelu): GELU(approximate=none)
        (c_proj): Linear(in_features=5120, out_features=1280, bias=True)
      )
      (ls_2): Identity()
    )
    (26): ResidualAttentionBlock(
      (ln_1): LayerNorm((1280,), eps=1e-05, elementwise_affine=True)
      (attn): MultiheadAttention(
        (out_proj): NonDynamicallyQuantizableLinear(in_features=1280, out_features=1280, bias=True)
      )
      (ls_1): Identity()
      (ln_2): LayerNorm((1280,), eps=1e-05, elementwise_affine=True)
      (mlp): Sequential(
        (c_fc): Linear(in_features=1280, out_features=5120, bias=True)
        (gelu): GELU(approximate=none)
        (c_proj): Linear(in_features=5120, out_features=1280, bias=True)
      )
      (ls_2): Identity()
    )
    (27): ResidualAttentionBlock(
      (ln_1): LayerNorm((1280,), eps=1e-05, elementwise_affine=True)
      (attn): MultiheadAttention(
        (out_proj): NonDynamicallyQuantizableLinear(in_features=1280, out_features=1280, bias=True)
      )
      (ls_1): Identity()
      (ln_2): LayerNorm((1280,), eps=1e-05, elementwise_affine=True)
      (mlp): Sequential(
        (c_fc): Linear(in_features=1280, out_features=5120, bias=True)
        (gelu): GELU(approximate=none)
        (c_proj): Linear(in_features=5120, out_features=1280, bias=True)
      )
      (ls_2): Identity()
    )
    (28): ResidualAttentionBlock(
      (ln_1): LayerNorm((1280,), eps=1e-05, elementwise_affine=True)
      (attn): MultiheadAttention(
        (out_proj): NonDynamicallyQuantizableLinear(in_features=1280, out_features=1280, bias=True)
      )
      (ls_1): Identity()
      (ln_2): LayerNorm((1280,), eps=1e-05, elementwise_affine=True)
      (mlp): Sequential(
        (c_fc): Linear(in_features=1280, out_features=5120, bias=True)
        (gelu): GELU(approximate=none)
        (c_proj): Linear(in_features=5120, out_features=1280, bias=True)
      )
      (ls_2): Identity()
    )
    (29): ResidualAttentionBlock(
      (ln_1): LayerNorm((1280,), eps=1e-05, elementwise_affine=True)
      (attn): MultiheadAttention(
        (out_proj): NonDynamicallyQuantizableLinear(in_features=1280, out_features=1280, bias=True)
      )
      (ls_1): Identity()
      (ln_2): LayerNorm((1280,), eps=1e-05, elementwise_affine=True)
      (mlp): Sequential(
        (c_fc): Linear(in_features=1280, out_features=5120, bias=True)
        (gelu): GELU(approximate=none)
        (c_proj): Linear(in_features=5120, out_features=1280, bias=True)
      )
      (ls_2): Identity()
    )
    (30): ResidualAttentionBlock(
      (ln_1): LayerNorm((1280,), eps=1e-05, elementwise_affine=True)
      (attn): MultiheadAttention(
        (out_proj): NonDynamicallyQuantizableLinear(in_features=1280, out_features=1280, bias=True)
      )
      (ls_1): Identity()
      (ln_2): LayerNorm((1280,), eps=1e-05, elementwise_affine=True)
      (mlp): Sequential(
        (c_fc): Linear(in_features=1280, out_features=5120, bias=True)
        (gelu): GELU(approximate=none)
        (c_proj): Linear(in_features=5120, out_features=1280, bias=True)
      )
      (ls_2): Identity()
    )
    (31): ResidualAttentionBlock(
      (ln_1): LayerNorm((1280,), eps=1e-05, elementwise_affine=True)
      (attn): MultiheadAttention(
        (out_proj): NonDynamicallyQuantizableLinear(in_features=1280, out_features=1280, bias=True)
      )
      (ls_1): Identity()
      (ln_2): LayerNorm((1280,), eps=1e-05, elementwise_affine=True)
      (mlp): Sequential(
        (c_fc): Linear(in_features=1280, out_features=5120, bias=True)
        (gelu): GELU(approximate=none)
        (c_proj): Linear(in_features=5120, out_features=1280, bias=True)
      )
      (ls_2): Identity()
    )
  )
)
self.transformer size is 629678080
Transformer(
  (resblocks): ModuleList(
    (0): ResidualAttentionBlock(
      (ln_1): LayerNorm((1280,), eps=1e-05, elementwise_affine=True)
      (attn): MultiheadAttention(
        (out_proj): NonDynamicallyQuantizableLinear(in_features=1280, out_features=1280, bias=True)
      )
      (ls_1): Identity()
      (ln_2): LayerNorm((1280,), eps=1e-05, elementwise_affine=True)
      (mlp): Sequential(
        (c_fc): Linear(in_features=1280, out_features=5120, bias=True)
        (gelu): GELU(approximate=none)
        (c_proj): Linear(in_features=5120, out_features=1280, bias=True)
      )
      (ls_2): Identity()
    )
    (1): ResidualAttentionBlock(
      (ln_1): LayerNorm((1280,), eps=1e-05, elementwise_affine=True)
      (attn): MultiheadAttention(
        (out_proj): NonDynamicallyQuantizableLinear(in_features=1280, out_features=1280, bias=True)
      )
      (ls_1): Identity()
      (ln_2): LayerNorm((1280,), eps=1e-05, elementwise_affine=True)
      (mlp): Sequential(
        (c_fc): Linear(in_features=1280, out_features=5120, bias=True)
        (gelu): GELU(approximate=none)
        (c_proj): Linear(in_features=5120, out_features=1280, bias=True)
      )
      (ls_2): Identity()
    )
    (2): ResidualAttentionBlock(
      (ln_1): LayerNorm((1280,), eps=1e-05, elementwise_affine=True)
      (attn): MultiheadAttention(
        (out_proj): NonDynamicallyQuantizableLinear(in_features=1280, out_features=1280, bias=True)
      )
      (ls_1): Identity()
      (ln_2): LayerNorm((1280,), eps=1e-05, elementwise_affine=True)
      (mlp): Sequential(
        (c_fc): Linear(in_features=1280, out_features=5120, bias=True)
        (gelu): GELU(approximate=none)
        (c_proj): Linear(in_features=5120, out_features=1280, bias=True)
      )
      (ls_2): Identity()
    )
    (3): ResidualAttentionBlock(
      (ln_1): LayerNorm((1280,), eps=1e-05, elementwise_affine=True)
      (attn): MultiheadAttention(
        (out_proj): NonDynamicallyQuantizableLinear(in_features=1280, out_features=1280, bias=True)
      )
      (ls_1): Identity()
      (ln_2): LayerNorm((1280,), eps=1e-05, elementwise_affine=True)
      (mlp): Sequential(
        (c_fc): Linear(in_features=1280, out_features=5120, bias=True)
        (gelu): GELU(approximate=none)
        (c_proj): Linear(in_features=5120, out_features=1280, bias=True)
      )
      (ls_2): Identity()
    )
    (4): ResidualAttentionBlock(
      (ln_1): LayerNorm((1280,), eps=1e-05, elementwise_affine=True)
      (attn): MultiheadAttention(
        (out_proj): NonDynamicallyQuantizableLinear(in_features=1280, out_features=1280, bias=True)
      )
      (ls_1): Identity()
      (ln_2): LayerNorm((1280,), eps=1e-05, elementwise_affine=True)
      (mlp): Sequential(
        (c_fc): Linear(in_features=1280, out_features=5120, bias=True)
        (gelu): GELU(approximate=none)
        (c_proj): Linear(in_features=5120, out_features=1280, bias=True)
      )
      (ls_2): Identity()
    )
    (5): ResidualAttentionBlock(
      (ln_1): LayerNorm((1280,), eps=1e-05, elementwise_affine=True)
      (attn): MultiheadAttention(
        (out_proj): NonDynamicallyQuantizableLinear(in_features=1280, out_features=1280, bias=True)
      )
      (ls_1): Identity()
      (ln_2): LayerNorm((1280,), eps=1e-05, elementwise_affine=True)
      (mlp): Sequential(
        (c_fc): Linear(in_features=1280, out_features=5120, bias=True)
        (gelu): GELU(approximate=none)
        (c_proj): Linear(in_features=5120, out_features=1280, bias=True)
      )
      (ls_2): Identity()
    )
    (6): ResidualAttentionBlock(
      (ln_1): LayerNorm((1280,), eps=1e-05, elementwise_affine=True)
      (attn): MultiheadAttention(
        (out_proj): NonDynamicallyQuantizableLinear(in_features=1280, out_features=1280, bias=True)
      )
      (ls_1): Identity()
      (ln_2): LayerNorm((1280,), eps=1e-05, elementwise_affine=True)
      (mlp): Sequential(
        (c_fc): Linear(in_features=1280, out_features=5120, bias=True)
        (gelu): GELU(approximate=none)
        (c_proj): Linear(in_features=5120, out_features=1280, bias=True)
      )
      (ls_2): Identity()
    )
    (7): ResidualAttentionBlock(
      (ln_1): LayerNorm((1280,), eps=1e-05, elementwise_affine=True)
      (attn): MultiheadAttention(
        (out_proj): NonDynamicallyQuantizableLinear(in_features=1280, out_features=1280, bias=True)
      )
      (ls_1): Identity()
      (ln_2): LayerNorm((1280,), eps=1e-05, elementwise_affine=True)
      (mlp): Sequential(
        (c_fc): Linear(in_features=1280, out_features=5120, bias=True)
        (gelu): GELU(approximate=none)
        (c_proj): Linear(in_features=5120, out_features=1280, bias=True)
      )
      (ls_2): Identity()
    )
    (8): ResidualAttentionBlock(
      (ln_1): LayerNorm((1280,), eps=1e-05, elementwise_affine=True)
      (attn): MultiheadAttention(
        (out_proj): NonDynamicallyQuantizableLinear(in_features=1280, out_features=1280, bias=True)
      )
      (ls_1): Identity()
      (ln_2): LayerNorm((1280,), eps=1e-05, elementwise_affine=True)
      (mlp): Sequential(
        (c_fc): Linear(in_features=1280, out_features=5120, bias=True)
        (gelu): GELU(approximate=none)
        (c_proj): Linear(in_features=5120, out_features=1280, bias=True)
      )
      (ls_2): Identity()
    )
    (9): ResidualAttentionBlock(
      (ln_1): LayerNorm((1280,), eps=1e-05, elementwise_affine=True)
      (attn): MultiheadAttention(
        (out_proj): NonDynamicallyQuantizableLinear(in_features=1280, out_features=1280, bias=True)
      )
      (ls_1): Identity()
      (ln_2): LayerNorm((1280,), eps=1e-05, elementwise_affine=True)
      (mlp): Sequential(
        (c_fc): Linear(in_features=1280, out_features=5120, bias=True)
        (gelu): GELU(approximate=none)
        (c_proj): Linear(in_features=5120, out_features=1280, bias=True)
      )
      (ls_2): Identity()
    )
    (10): ResidualAttentionBlock(
      (ln_1): LayerNorm((1280,), eps=1e-05, elementwise_affine=True)
      (attn): MultiheadAttention(
        (out_proj): NonDynamicallyQuantizableLinear(in_features=1280, out_features=1280, bias=True)
      )
      (ls_1): Identity()
      (ln_2): LayerNorm((1280,), eps=1e-05, elementwise_affine=True)
      (mlp): Sequential(
        (c_fc): Linear(in_features=1280, out_features=5120, bias=True)
        (gelu): GELU(approximate=none)
        (c_proj): Linear(in_features=5120, out_features=1280, bias=True)
      )
      (ls_2): Identity()
    )
    (11): ResidualAttentionBlock(
      (ln_1): LayerNorm((1280,), eps=1e-05, elementwise_affine=True)
      (attn): MultiheadAttention(
        (out_proj): NonDynamicallyQuantizableLinear(in_features=1280, out_features=1280, bias=True)
      )
      (ls_1): Identity()
      (ln_2): LayerNorm((1280,), eps=1e-05, elementwise_affine=True)
      (mlp): Sequential(
        (c_fc): Linear(in_features=1280, out_features=5120, bias=True)
        (gelu): GELU(approximate=none)
        (c_proj): Linear(in_features=5120, out_features=1280, bias=True)
      )
      (ls_2): Identity()
    )
    (12): ResidualAttentionBlock(
      (ln_1): LayerNorm((1280,), eps=1e-05, elementwise_affine=True)
      (attn): MultiheadAttention(
        (out_proj): NonDynamicallyQuantizableLinear(in_features=1280, out_features=1280, bias=True)
      )
      (ls_1): Identity()
      (ln_2): LayerNorm((1280,), eps=1e-05, elementwise_affine=True)
      (mlp): Sequential(
        (c_fc): Linear(in_features=1280, out_features=5120, bias=True)
        (gelu): GELU(approximate=none)
        (c_proj): Linear(in_features=5120, out_features=1280, bias=True)
      )
      (ls_2): Identity()
    )
    (13): ResidualAttentionBlock(
      (ln_1): LayerNorm((1280,), eps=1e-05, elementwise_affine=True)
      (attn): MultiheadAttention(
        (out_proj): NonDynamicallyQuantizableLinear(in_features=1280, out_features=1280, bias=True)
      )
      (ls_1): Identity()
      (ln_2): LayerNorm((1280,), eps=1e-05, elementwise_affine=True)
      (mlp): Sequential(
        (c_fc): Linear(in_features=1280, out_features=5120, bias=True)
        (gelu): GELU(approximate=none)
        (c_proj): Linear(in_features=5120, out_features=1280, bias=True)
      )
      (ls_2): Identity()
    )
    (14): ResidualAttentionBlock(
      (ln_1): LayerNorm((1280,), eps=1e-05, elementwise_affine=True)
      (attn): MultiheadAttention(
        (out_proj): NonDynamicallyQuantizableLinear(in_features=1280, out_features=1280, bias=True)
      )
      (ls_1): Identity()
      (ln_2): LayerNorm((1280,), eps=1e-05, elementwise_affine=True)
      (mlp): Sequential(
        (c_fc): Linear(in_features=1280, out_features=5120, bias=True)
        (gelu): GELU(approximate=none)
        (c_proj): Linear(in_features=5120, out_features=1280, bias=True)
      )
      (ls_2): Identity()
    )
    (15): ResidualAttentionBlock(
      (ln_1): LayerNorm((1280,), eps=1e-05, elementwise_affine=True)
      (attn): MultiheadAttention(
        (out_proj): NonDynamicallyQuantizableLinear(in_features=1280, out_features=1280, bias=True)
      )
      (ls_1): Identity()
      (ln_2): LayerNorm((1280,), eps=1e-05, elementwise_affine=True)
      (mlp): Sequential(
        (c_fc): Linear(in_features=1280, out_features=5120, bias=True)
        (gelu): GELU(approximate=none)
        (c_proj): Linear(in_features=5120, out_features=1280, bias=True)
      )
      (ls_2): Identity()
    )
    (16): ResidualAttentionBlock(
      (ln_1): LayerNorm((1280,), eps=1e-05, elementwise_affine=True)
      (attn): MultiheadAttention(
        (out_proj): NonDynamicallyQuantizableLinear(in_features=1280, out_features=1280, bias=True)
      )
      (ls_1): Identity()
      (ln_2): LayerNorm((1280,), eps=1e-05, elementwise_affine=True)
      (mlp): Sequential(
        (c_fc): Linear(in_features=1280, out_features=5120, bias=True)
        (gelu): GELU(approximate=none)
        (c_proj): Linear(in_features=5120, out_features=1280, bias=True)
      )
      (ls_2): Identity()
    )
    (17): ResidualAttentionBlock(
      (ln_1): LayerNorm((1280,), eps=1e-05, elementwise_affine=True)
      (attn): MultiheadAttention(
        (out_proj): NonDynamicallyQuantizableLinear(in_features=1280, out_features=1280, bias=True)
      )
      (ls_1): Identity()
      (ln_2): LayerNorm((1280,), eps=1e-05, elementwise_affine=True)
      (mlp): Sequential(
        (c_fc): Linear(in_features=1280, out_features=5120, bias=True)
        (gelu): GELU(approximate=none)
        (c_proj): Linear(in_features=5120, out_features=1280, bias=True)
      )
      (ls_2): Identity()
    )
    (18): ResidualAttentionBlock(
      (ln_1): LayerNorm((1280,), eps=1e-05, elementwise_affine=True)
      (attn): MultiheadAttention(
        (out_proj): NonDynamicallyQuantizableLinear(in_features=1280, out_features=1280, bias=True)
      )
      (ls_1): Identity()
      (ln_2): LayerNorm((1280,), eps=1e-05, elementwise_affine=True)
      (mlp): Sequential(
        (c_fc): Linear(in_features=1280, out_features=5120, bias=True)
        (gelu): GELU(approximate=none)
        (c_proj): Linear(in_features=5120, out_features=1280, bias=True)
      )
      (ls_2): Identity()
    )
    (19): ResidualAttentionBlock(
      (ln_1): LayerNorm((1280,), eps=1e-05, elementwise_affine=True)
      (attn): MultiheadAttention(
        (out_proj): NonDynamicallyQuantizableLinear(in_features=1280, out_features=1280, bias=True)
      )
      (ls_1): Identity()
      (ln_2): LayerNorm((1280,), eps=1e-05, elementwise_affine=True)
      (mlp): Sequential(
        (c_fc): Linear(in_features=1280, out_features=5120, bias=True)
        (gelu): GELU(approximate=none)
        (c_proj): Linear(in_features=5120, out_features=1280, bias=True)
      )
      (ls_2): Identity()
    )
    (20): ResidualAttentionBlock(
      (ln_1): LayerNorm((1280,), eps=1e-05, elementwise_affine=True)
      (attn): MultiheadAttention(
        (out_proj): NonDynamicallyQuantizableLinear(in_features=1280, out_features=1280, bias=True)
      )
      (ls_1): Identity()
      (ln_2): LayerNorm((1280,), eps=1e-05, elementwise_affine=True)
      (mlp): Sequential(
        (c_fc): Linear(in_features=1280, out_features=5120, bias=True)
        (gelu): GELU(approximate=none)
        (c_proj): Linear(in_features=5120, out_features=1280, bias=True)
      )
      (ls_2): Identity()
    )
    (21): ResidualAttentionBlock(
      (ln_1): LayerNorm((1280,), eps=1e-05, elementwise_affine=True)
      (attn): MultiheadAttention(
        (out_proj): NonDynamicallyQuantizableLinear(in_features=1280, out_features=1280, bias=True)
      )
      (ls_1): Identity()
      (ln_2): LayerNorm((1280,), eps=1e-05, elementwise_affine=True)
      (mlp): Sequential(
        (c_fc): Linear(in_features=1280, out_features=5120, bias=True)
        (gelu): GELU(approximate=none)
        (c_proj): Linear(in_features=5120, out_features=1280, bias=True)
      )
      (ls_2): Identity()
    )
    (22): ResidualAttentionBlock(
      (ln_1): LayerNorm((1280,), eps=1e-05, elementwise_affine=True)
      (attn): MultiheadAttention(
        (out_proj): NonDynamicallyQuantizableLinear(in_features=1280, out_features=1280, bias=True)
      )
      (ls_1): Identity()
      (ln_2): LayerNorm((1280,), eps=1e-05, elementwise_affine=True)
      (mlp): Sequential(
        (c_fc): Linear(in_features=1280, out_features=5120, bias=True)
        (gelu): GELU(approximate=none)
        (c_proj): Linear(in_features=5120, out_features=1280, bias=True)
      )
      (ls_2): Identity()
    )
    (23): ResidualAttentionBlock(
      (ln_1): LayerNorm((1280,), eps=1e-05, elementwise_affine=True)
      (attn): MultiheadAttention(
        (out_proj): NonDynamicallyQuantizableLinear(in_features=1280, out_features=1280, bias=True)
      )
      (ls_1): Identity()
      (ln_2): LayerNorm((1280,), eps=1e-05, elementwise_affine=True)
      (mlp): Sequential(
        (c_fc): Linear(in_features=1280, out_features=5120, bias=True)
        (gelu): GELU(approximate=none)
        (c_proj): Linear(in_features=5120, out_features=1280, bias=True)
      )
      (ls_2): Identity()
    )
    (24): ResidualAttentionBlock(
      (ln_1): LayerNorm((1280,), eps=1e-05, elementwise_affine=True)
      (attn): MultiheadAttention(
        (out_proj): NonDynamicallyQuantizableLinear(in_features=1280, out_features=1280, bias=True)
      )
      (ls_1): Identity()
      (ln_2): LayerNorm((1280,), eps=1e-05, elementwise_affine=True)
      (mlp): Sequential(
        (c_fc): Linear(in_features=1280, out_features=5120, bias=True)
        (gelu): GELU(approximate=none)
        (c_proj): Linear(in_features=5120, out_features=1280, bias=True)
      )
      (ls_2): Identity()
    )
    (25): ResidualAttentionBlock(
      (ln_1): LayerNorm((1280,), eps=1e-05, elementwise_affine=True)
      (attn): MultiheadAttention(
        (out_proj): NonDynamicallyQuantizableLinear(in_features=1280, out_features=1280, bias=True)
      )
      (ls_1): Identity()
      (ln_2): LayerNorm((1280,), eps=1e-05, elementwise_affine=True)
      (mlp): Sequential(
        (c_fc): Linear(in_features=1280, out_features=5120, bias=True)
        (gelu): GELU(approximate=none)
        (c_proj): Linear(in_features=5120, out_features=1280, bias=True)
      )
      (ls_2): Identity()
    )
    (26): ResidualAttentionBlock(
      (ln_1): LayerNorm((1280,), eps=1e-05, elementwise_affine=True)
      (attn): MultiheadAttention(
        (out_proj): NonDynamicallyQuantizableLinear(in_features=1280, out_features=1280, bias=True)
      )
      (ls_1): Identity()
      (ln_2): LayerNorm((1280,), eps=1e-05, elementwise_affine=True)
      (mlp): Sequential(
        (c_fc): Linear(in_features=1280, out_features=5120, bias=True)
        (gelu): GELU(approximate=none)
        (c_proj): Linear(in_features=5120, out_features=1280, bias=True)
      )
      (ls_2): Identity()
    )
    (27): ResidualAttentionBlock(
      (ln_1): LayerNorm((1280,), eps=1e-05, elementwise_affine=True)
      (attn): MultiheadAttention(
        (out_proj): NonDynamicallyQuantizableLinear(in_features=1280, out_features=1280, bias=True)
      )
      (ls_1): Identity()
      (ln_2): LayerNorm((1280,), eps=1e-05, elementwise_affine=True)
      (mlp): Sequential(
        (c_fc): Linear(in_features=1280, out_features=5120, bias=True)
        (gelu): GELU(approximate=none)
        (c_proj): Linear(in_features=5120, out_features=1280, bias=True)
      )
      (ls_2): Identity()
    )
    (28): ResidualAttentionBlock(
      (ln_1): LayerNorm((1280,), eps=1e-05, elementwise_affine=True)
      (attn): MultiheadAttention(
        (out_proj): NonDynamicallyQuantizableLinear(in_features=1280, out_features=1280, bias=True)
      )
      (ls_1): Identity()
      (ln_2): LayerNorm((1280,), eps=1e-05, elementwise_affine=True)
      (mlp): Sequential(
        (c_fc): Linear(in_features=1280, out_features=5120, bias=True)
        (gelu): GELU(approximate=none)
        (c_proj): Linear(in_features=5120, out_features=1280, bias=True)
      )
      (ls_2): Identity()
    )
    (29): ResidualAttentionBlock(
      (ln_1): LayerNorm((1280,), eps=1e-05, elementwise_affine=True)
      (attn): MultiheadAttention(
        (out_proj): NonDynamicallyQuantizableLinear(in_features=1280, out_features=1280, bias=True)
      )
      (ls_1): Identity()
      (ln_2): LayerNorm((1280,), eps=1e-05, elementwise_affine=True)
      (mlp): Sequential(
        (c_fc): Linear(in_features=1280, out_features=5120, bias=True)
        (gelu): GELU(approximate=none)
        (c_proj): Linear(in_features=5120, out_features=1280, bias=True)
      )
      (ls_2): Identity()
    )
    (30): ResidualAttentionBlock(
      (ln_1): LayerNorm((1280,), eps=1e-05, elementwise_affine=True)
      (attn): MultiheadAttention(
        (out_proj): NonDynamicallyQuantizableLinear(in_features=1280, out_features=1280, bias=True)
      )
      (ls_1): Identity()
      (ln_2): LayerNorm((1280,), eps=1e-05, elementwise_affine=True)
      (mlp): Sequential(
        (c_fc): Linear(in_features=1280, out_features=5120, bias=True)
        (gelu): GELU(approximate=none)
        (c_proj): Linear(in_features=5120, out_features=1280, bias=True)
      )
      (ls_2): Identity()
    )
    (31): ResidualAttentionBlock(
      (ln_1): LayerNorm((1280,), eps=1e-05, elementwise_affine=True)
      (attn): MultiheadAttention(
        (out_proj): NonDynamicallyQuantizableLinear(in_features=1280, out_features=1280, bias=True)
      )
      (ls_1): Identity()
      (ln_2): LayerNorm((1280,), eps=1e-05, elementwise_affine=True)
      (mlp): Sequential(
        (c_fc): Linear(in_features=1280, out_features=5120, bias=True)
        (gelu): GELU(approximate=none)
        (c_proj): Linear(in_features=5120, out_features=1280, bias=True)
      )
      (ls_2): Identity()
    )
  )
)
self.transformer size is 629678080
visual size 632076800
visual tower size is 632076800
visual size 632076800
visual tower size is 632076800
Transformer(
  (resblocks): ModuleList(
    (0): ResidualAttentionBlock(
      (ln_1): LayerNorm((1280,), eps=1e-05, elementwise_affine=True)
      (attn): MultiheadAttention(
        (out_proj): NonDynamicallyQuantizableLinear(in_features=1280, out_features=1280, bias=True)
      )
      (ls_1): Identity()
      (ln_2): LayerNorm((1280,), eps=1e-05, elementwise_affine=True)
      (mlp): Sequential(
        (c_fc): Linear(in_features=1280, out_features=5120, bias=True)
        (gelu): GELU(approximate=none)
        (c_proj): Linear(in_features=5120, out_features=1280, bias=True)
      )
      (ls_2): Identity()
    )
    (1): ResidualAttentionBlock(
      (ln_1): LayerNorm((1280,), eps=1e-05, elementwise_affine=True)
      (attn): MultiheadAttention(
        (out_proj): NonDynamicallyQuantizableLinear(in_features=1280, out_features=1280, bias=True)
      )
      (ls_1): Identity()
      (ln_2): LayerNorm((1280,), eps=1e-05, elementwise_affine=True)
      (mlp): Sequential(
        (c_fc): Linear(in_features=1280, out_features=5120, bias=True)
        (gelu): GELU(approximate=none)
        (c_proj): Linear(in_features=5120, out_features=1280, bias=True)
      )
      (ls_2): Identity()
    )
    (2): ResidualAttentionBlock(
      (ln_1): LayerNorm((1280,), eps=1e-05, elementwise_affine=True)
      (attn): MultiheadAttention(
        (out_proj): NonDynamicallyQuantizableLinear(in_features=1280, out_features=1280, bias=True)
      )
      (ls_1): Identity()
      (ln_2): LayerNorm((1280,), eps=1e-05, elementwise_affine=True)
      (mlp): Sequential(
        (c_fc): Linear(in_features=1280, out_features=5120, bias=True)
        (gelu): GELU(approximate=none)
        (c_proj): Linear(in_features=5120, out_features=1280, bias=True)
      )
      (ls_2): Identity()
    )
    (3): ResidualAttentionBlock(
      (ln_1): LayerNorm((1280,), eps=1e-05, elementwise_affine=True)
      (attn): MultiheadAttention(
        (out_proj): NonDynamicallyQuantizableLinear(in_features=1280, out_features=1280, bias=True)
      )
      (ls_1): Identity()
      (ln_2): LayerNorm((1280,), eps=1e-05, elementwise_affine=True)
      (mlp): Sequential(
        (c_fc): Linear(in_features=1280, out_features=5120, bias=True)
        (gelu): GELU(approximate=none)
        (c_proj): Linear(in_features=5120, out_features=1280, bias=True)
      )
      (ls_2): Identity()
    )
    (4): ResidualAttentionBlock(
      (ln_1): LayerNorm((1280,), eps=1e-05, elementwise_affine=True)
      (attn): MultiheadAttention(
        (out_proj): NonDynamicallyQuantizableLinear(in_features=1280, out_features=1280, bias=True)
      )
      (ls_1): Identity()
      (ln_2): LayerNorm((1280,), eps=1e-05, elementwise_affine=True)
      (mlp): Sequential(
        (c_fc): Linear(in_features=1280, out_features=5120, bias=True)
        (gelu): GELU(approximate=none)
        (c_proj): Linear(in_features=5120, out_features=1280, bias=True)
      )
      (ls_2): Identity()
    )
    (5): ResidualAttentionBlock(
      (ln_1): LayerNorm((1280,), eps=1e-05, elementwise_affine=True)
      (attn): MultiheadAttention(
        (out_proj): NonDynamicallyQuantizableLinear(in_features=1280, out_features=1280, bias=True)
      )
      (ls_1): Identity()
      (ln_2): LayerNorm((1280,), eps=1e-05, elementwise_affine=True)
      (mlp): Sequential(
        (c_fc): Linear(in_features=1280, out_features=5120, bias=True)
        (gelu): GELU(approximate=none)
        (c_proj): Linear(in_features=5120, out_features=1280, bias=True)
      )
      (ls_2): Identity()
    )
    (6): ResidualAttentionBlock(
      (ln_1): LayerNorm((1280,), eps=1e-05, elementwise_affine=True)
      (attn): MultiheadAttention(
        (out_proj): NonDynamicallyQuantizableLinear(in_features=1280, out_features=1280, bias=True)
      )
      (ls_1): Identity()
      (ln_2): LayerNorm((1280,), eps=1e-05, elementwise_affine=True)
      (mlp): Sequential(
        (c_fc): Linear(in_features=1280, out_features=5120, bias=True)
        (gelu): GELU(approximate=none)
        (c_proj): Linear(in_features=5120, out_features=1280, bias=True)
      )
      (ls_2): Identity()
    )
    (7): ResidualAttentionBlock(
      (ln_1): LayerNorm((1280,), eps=1e-05, elementwise_affine=True)
      (attn): MultiheadAttention(
        (out_proj): NonDynamicallyQuantizableLinear(in_features=1280, out_features=1280, bias=True)
      )
      (ls_1): Identity()
      (ln_2): LayerNorm((1280,), eps=1e-05, elementwise_affine=True)
      (mlp): Sequential(
        (c_fc): Linear(in_features=1280, out_features=5120, bias=True)
        (gelu): GELU(approximate=none)
        (c_proj): Linear(in_features=5120, out_features=1280, bias=True)
      )
      (ls_2): Identity()
    )
    (8): ResidualAttentionBlock(
      (ln_1): LayerNorm((1280,), eps=1e-05, elementwise_affine=True)
      (attn): MultiheadAttention(
        (out_proj): NonDynamicallyQuantizableLinear(in_features=1280, out_features=1280, bias=True)
      )
      (ls_1): Identity()
      (ln_2): LayerNorm((1280,), eps=1e-05, elementwise_affine=True)
      (mlp): Sequential(
        (c_fc): Linear(in_features=1280, out_features=5120, bias=True)
        (gelu): GELU(approximate=none)
        (c_proj): Linear(in_features=5120, out_features=1280, bias=True)
      )
      (ls_2): Identity()
    )
    (9): ResidualAttentionBlock(
      (ln_1): LayerNorm((1280,), eps=1e-05, elementwise_affine=True)
      (attn): MultiheadAttention(
        (out_proj): NonDynamicallyQuantizableLinear(in_features=1280, out_features=1280, bias=True)
      )
      (ls_1): Identity()
      (ln_2): LayerNorm((1280,), eps=1e-05, elementwise_affine=True)
      (mlp): Sequential(
        (c_fc): Linear(in_features=1280, out_features=5120, bias=True)
        (gelu): GELU(approximate=none)
        (c_proj): Linear(in_features=5120, out_features=1280, bias=True)
      )
      (ls_2): Identity()
    )
    (10): ResidualAttentionBlock(
      (ln_1): LayerNorm((1280,), eps=1e-05, elementwise_affine=True)
      (attn): MultiheadAttention(
        (out_proj): NonDynamicallyQuantizableLinear(in_features=1280, out_features=1280, bias=True)
      )
      (ls_1): Identity()
      (ln_2): LayerNorm((1280,), eps=1e-05, elementwise_affine=True)
      (mlp): Sequential(
        (c_fc): Linear(in_features=1280, out_features=5120, bias=True)
        (gelu): GELU(approximate=none)
        (c_proj): Linear(in_features=5120, out_features=1280, bias=True)
      )
      (ls_2): Identity()
    )
    (11): ResidualAttentionBlock(
      (ln_1): LayerNorm((1280,), eps=1e-05, elementwise_affine=True)
      (attn): MultiheadAttention(
        (out_proj): NonDynamicallyQuantizableLinear(in_features=1280, out_features=1280, bias=True)
      )
      (ls_1): Identity()
      (ln_2): LayerNorm((1280,), eps=1e-05, elementwise_affine=True)
      (mlp): Sequential(
        (c_fc): Linear(in_features=1280, out_features=5120, bias=True)
        (gelu): GELU(approximate=none)
        (c_proj): Linear(in_features=5120, out_features=1280, bias=True)
      )
      (ls_2): Identity()
    )
    (12): ResidualAttentionBlock(
      (ln_1): LayerNorm((1280,), eps=1e-05, elementwise_affine=True)
      (attn): MultiheadAttention(
        (out_proj): NonDynamicallyQuantizableLinear(in_features=1280, out_features=1280, bias=True)
      )
      (ls_1): Identity()
      (ln_2): LayerNorm((1280,), eps=1e-05, elementwise_affine=True)
      (mlp): Sequential(
        (c_fc): Linear(in_features=1280, out_features=5120, bias=True)
        (gelu): GELU(approximate=none)
        (c_proj): Linear(in_features=5120, out_features=1280, bias=True)
      )
      (ls_2): Identity()
    )
    (13): ResidualAttentionBlock(
      (ln_1): LayerNorm((1280,), eps=1e-05, elementwise_affine=True)
      (attn): MultiheadAttention(
        (out_proj): NonDynamicallyQuantizableLinear(in_features=1280, out_features=1280, bias=True)
      )
      (ls_1): Identity()
      (ln_2): LayerNorm((1280,), eps=1e-05, elementwise_affine=True)
      (mlp): Sequential(
        (c_fc): Linear(in_features=1280, out_features=5120, bias=True)
        (gelu): GELU(approximate=none)
        (c_proj): Linear(in_features=5120, out_features=1280, bias=True)
      )
      (ls_2): Identity()
    )
    (14): ResidualAttentionBlock(
      (ln_1): LayerNorm((1280,), eps=1e-05, elementwise_affine=True)
      (attn): MultiheadAttention(
        (out_proj): NonDynamicallyQuantizableLinear(in_features=1280, out_features=1280, bias=True)
      )
      (ls_1): Identity()
      (ln_2): LayerNorm((1280,), eps=1e-05, elementwise_affine=True)
      (mlp): Sequential(
        (c_fc): Linear(in_features=1280, out_features=5120, bias=True)
        (gelu): GELU(approximate=none)
        (c_proj): Linear(in_features=5120, out_features=1280, bias=True)
      )
      (ls_2): Identity()
    )
    (15): ResidualAttentionBlock(
      (ln_1): LayerNorm((1280,), eps=1e-05, elementwise_affine=True)
      (attn): MultiheadAttention(
        (out_proj): NonDynamicallyQuantizableLinear(in_features=1280, out_features=1280, bias=True)
      )
      (ls_1): Identity()
      (ln_2): LayerNorm((1280,), eps=1e-05, elementwise_affine=True)
      (mlp): Sequential(
        (c_fc): Linear(in_features=1280, out_features=5120, bias=True)
        (gelu): GELU(approximate=none)
        (c_proj): Linear(in_features=5120, out_features=1280, bias=True)
      )
      (ls_2): Identity()
    )
    (16): ResidualAttentionBlock(
      (ln_1): LayerNorm((1280,), eps=1e-05, elementwise_affine=True)
      (attn): MultiheadAttention(
        (out_proj): NonDynamicallyQuantizableLinear(in_features=1280, out_features=1280, bias=True)
      )
      (ls_1): Identity()
      (ln_2): LayerNorm((1280,), eps=1e-05, elementwise_affine=True)
      (mlp): Sequential(
        (c_fc): Linear(in_features=1280, out_features=5120, bias=True)
        (gelu): GELU(approximate=none)
        (c_proj): Linear(in_features=5120, out_features=1280, bias=True)
      )
      (ls_2): Identity()
    )
    (17): ResidualAttentionBlock(
      (ln_1): LayerNorm((1280,), eps=1e-05, elementwise_affine=True)
      (attn): MultiheadAttention(
        (out_proj): NonDynamicallyQuantizableLinear(in_features=1280, out_features=1280, bias=True)
      )
      (ls_1): Identity()
      (ln_2): LayerNorm((1280,), eps=1e-05, elementwise_affine=True)
      (mlp): Sequential(
        (c_fc): Linear(in_features=1280, out_features=5120, bias=True)
        (gelu): GELU(approximate=none)
        (c_proj): Linear(in_features=5120, out_features=1280, bias=True)
      )
      (ls_2): Identity()
    )
    (18): ResidualAttentionBlock(
      (ln_1): LayerNorm((1280,), eps=1e-05, elementwise_affine=True)
      (attn): MultiheadAttention(
        (out_proj): NonDynamicallyQuantizableLinear(in_features=1280, out_features=1280, bias=True)
      )
      (ls_1): Identity()
      (ln_2): LayerNorm((1280,), eps=1e-05, elementwise_affine=True)
      (mlp): Sequential(
        (c_fc): Linear(in_features=1280, out_features=5120, bias=True)
        (gelu): GELU(approximate=none)
        (c_proj): Linear(in_features=5120, out_features=1280, bias=True)
      )
      (ls_2): Identity()
    )
    (19): ResidualAttentionBlock(
      (ln_1): LayerNorm((1280,), eps=1e-05, elementwise_affine=True)
      (attn): MultiheadAttention(
        (out_proj): NonDynamicallyQuantizableLinear(in_features=1280, out_features=1280, bias=True)
      )
      (ls_1): Identity()
      (ln_2): LayerNorm((1280,), eps=1e-05, elementwise_affine=True)
      (mlp): Sequential(
        (c_fc): Linear(in_features=1280, out_features=5120, bias=True)
        (gelu): GELU(approximate=none)
        (c_proj): Linear(in_features=5120, out_features=1280, bias=True)
      )
      (ls_2): Identity()
    )
    (20): ResidualAttentionBlock(
      (ln_1): LayerNorm((1280,), eps=1e-05, elementwise_affine=True)
      (attn): MultiheadAttention(
        (out_proj): NonDynamicallyQuantizableLinear(in_features=1280, out_features=1280, bias=True)
      )
      (ls_1): Identity()
      (ln_2): LayerNorm((1280,), eps=1e-05, elementwise_affine=True)
      (mlp): Sequential(
        (c_fc): Linear(in_features=1280, out_features=5120, bias=True)
        (gelu): GELU(approximate=none)
        (c_proj): Linear(in_features=5120, out_features=1280, bias=True)
      )
      (ls_2): Identity()
    )
    (21): ResidualAttentionBlock(
      (ln_1): LayerNorm((1280,), eps=1e-05, elementwise_affine=True)
      (attn): MultiheadAttention(
        (out_proj): NonDynamicallyQuantizableLinear(in_features=1280, out_features=1280, bias=True)
      )
      (ls_1): Identity()
      (ln_2): LayerNorm((1280,), eps=1e-05, elementwise_affine=True)
      (mlp): Sequential(
        (c_fc): Linear(in_features=1280, out_features=5120, bias=True)
        (gelu): GELU(approximate=none)
        (c_proj): Linear(in_features=5120, out_features=1280, bias=True)
      )
      (ls_2): Identity()
    )
    (22): ResidualAttentionBlock(
      (ln_1): LayerNorm((1280,), eps=1e-05, elementwise_affine=True)
      (attn): MultiheadAttention(
        (out_proj): NonDynamicallyQuantizableLinear(in_features=1280, out_features=1280, bias=True)
      )
      (ls_1): Identity()
      (ln_2): LayerNorm((1280,), eps=1e-05, elementwise_affine=True)
      (mlp): Sequential(
        (c_fc): Linear(in_features=1280, out_features=5120, bias=True)
        (gelu): GELU(approximate=none)
        (c_proj): Linear(in_features=5120, out_features=1280, bias=True)
      )
      (ls_2): Identity()
    )
    (23): ResidualAttentionBlock(
      (ln_1): LayerNorm((1280,), eps=1e-05, elementwise_affine=True)
      (attn): MultiheadAttention(
        (out_proj): NonDynamicallyQuantizableLinear(in_features=1280, out_features=1280, bias=True)
      )
      (ls_1): Identity()
      (ln_2): LayerNorm((1280,), eps=1e-05, elementwise_affine=True)
      (mlp): Sequential(
        (c_fc): Linear(in_features=1280, out_features=5120, bias=True)
        (gelu): GELU(approximate=none)
        (c_proj): Linear(in_features=5120, out_features=1280, bias=True)
      )
      (ls_2): Identity()
    )
    (24): ResidualAttentionBlock(
      (ln_1): LayerNorm((1280,), eps=1e-05, elementwise_affine=True)
      (attn): MultiheadAttention(
        (out_proj): NonDynamicallyQuantizableLinear(in_features=1280, out_features=1280, bias=True)
      )
      (ls_1): Identity()
      (ln_2): LayerNorm((1280,), eps=1e-05, elementwise_affine=True)
      (mlp): Sequential(
        (c_fc): Linear(in_features=1280, out_features=5120, bias=True)
        (gelu): GELU(approximate=none)
        (c_proj): Linear(in_features=5120, out_features=1280, bias=True)
      )
      (ls_2): Identity()
    )
    (25): ResidualAttentionBlock(
      (ln_1): LayerNorm((1280,), eps=1e-05, elementwise_affine=True)
      (attn): MultiheadAttention(
        (out_proj): NonDynamicallyQuantizableLinear(in_features=1280, out_features=1280, bias=True)
      )
      (ls_1): Identity()
      (ln_2): LayerNorm((1280,), eps=1e-05, elementwise_affine=True)
      (mlp): Sequential(
        (c_fc): Linear(in_features=1280, out_features=5120, bias=True)
        (gelu): GELU(approximate=none)
        (c_proj): Linear(in_features=5120, out_features=1280, bias=True)
      )
      (ls_2): Identity()
    )
    (26): ResidualAttentionBlock(
      (ln_1): LayerNorm((1280,), eps=1e-05, elementwise_affine=True)
      (attn): MultiheadAttention(
        (out_proj): NonDynamicallyQuantizableLinear(in_features=1280, out_features=1280, bias=True)
      )
      (ls_1): Identity()
      (ln_2): LayerNorm((1280,), eps=1e-05, elementwise_affine=True)
      (mlp): Sequential(
        (c_fc): Linear(in_features=1280, out_features=5120, bias=True)
        (gelu): GELU(approximate=none)
        (c_proj): Linear(in_features=5120, out_features=1280, bias=True)
      )
      (ls_2): Identity()
    )
    (27): ResidualAttentionBlock(
      (ln_1): LayerNorm((1280,), eps=1e-05, elementwise_affine=True)
      (attn): MultiheadAttention(
        (out_proj): NonDynamicallyQuantizableLinear(in_features=1280, out_features=1280, bias=True)
      )
      (ls_1): Identity()
      (ln_2): LayerNorm((1280,), eps=1e-05, elementwise_affine=True)
      (mlp): Sequential(
        (c_fc): Linear(in_features=1280, out_features=5120, bias=True)
        (gelu): GELU(approximate=none)
        (c_proj): Linear(in_features=5120, out_features=1280, bias=True)
      )
      (ls_2): Identity()
    )
    (28): ResidualAttentionBlock(
      (ln_1): LayerNorm((1280,), eps=1e-05, elementwise_affine=True)
      (attn): MultiheadAttention(
        (out_proj): NonDynamicallyQuantizableLinear(in_features=1280, out_features=1280, bias=True)
      )
      (ls_1): Identity()
      (ln_2): LayerNorm((1280,), eps=1e-05, elementwise_affine=True)
      (mlp): Sequential(
        (c_fc): Linear(in_features=1280, out_features=5120, bias=True)
        (gelu): GELU(approximate=none)
        (c_proj): Linear(in_features=5120, out_features=1280, bias=True)
      )
      (ls_2): Identity()
    )
    (29): ResidualAttentionBlock(
      (ln_1): LayerNorm((1280,), eps=1e-05, elementwise_affine=True)
      (attn): MultiheadAttention(
        (out_proj): NonDynamicallyQuantizableLinear(in_features=1280, out_features=1280, bias=True)
      )
      (ls_1): Identity()
      (ln_2): LayerNorm((1280,), eps=1e-05, elementwise_affine=True)
      (mlp): Sequential(
        (c_fc): Linear(in_features=1280, out_features=5120, bias=True)
        (gelu): GELU(approximate=none)
        (c_proj): Linear(in_features=5120, out_features=1280, bias=True)
      )
      (ls_2): Identity()
    )
    (30): ResidualAttentionBlock(
      (ln_1): LayerNorm((1280,), eps=1e-05, elementwise_affine=True)
      (attn): MultiheadAttention(
        (out_proj): NonDynamicallyQuantizableLinear(in_features=1280, out_features=1280, bias=True)
      )
      (ls_1): Identity()
      (ln_2): LayerNorm((1280,), eps=1e-05, elementwise_affine=True)
      (mlp): Sequential(
        (c_fc): Linear(in_features=1280, out_features=5120, bias=True)
        (gelu): GELU(approximate=none)
        (c_proj): Linear(in_features=5120, out_features=1280, bias=True)
      )
      (ls_2): Identity()
    )
    (31): ResidualAttentionBlock(
      (ln_1): LayerNorm((1280,), eps=1e-05, elementwise_affine=True)
      (attn): MultiheadAttention(
        (out_proj): NonDynamicallyQuantizableLinear(in_features=1280, out_features=1280, bias=True)
      )
      (ls_1): Identity()
      (ln_2): LayerNorm((1280,), eps=1e-05, elementwise_affine=True)
      (mlp): Sequential(
        (c_fc): Linear(in_features=1280, out_features=5120, bias=True)
        (gelu): GELU(approximate=none)
        (c_proj): Linear(in_features=5120, out_features=1280, bias=True)
      )
      (ls_2): Identity()
    )
  )
)
self.transformer size is 629678080
visual size 632076800
visual tower size is 632076800
Transformer(
  (resblocks): ModuleList(
    (0): ResidualAttentionBlock(
      (ln_1): LayerNorm((1280,), eps=1e-05, elementwise_affine=True)
      (attn): MultiheadAttention(
        (out_proj): NonDynamicallyQuantizableLinear(in_features=1280, out_features=1280, bias=True)
      )
      (ls_1): Identity()
      (ln_2): LayerNorm((1280,), eps=1e-05, elementwise_affine=True)
      (mlp): Sequential(
        (c_fc): Linear(in_features=1280, out_features=5120, bias=True)
        (gelu): GELU(approximate=none)
        (c_proj): Linear(in_features=5120, out_features=1280, bias=True)
      )
      (ls_2): Identity()
    )
    (1): ResidualAttentionBlock(
      (ln_1): LayerNorm((1280,), eps=1e-05, elementwise_affine=True)
      (attn): MultiheadAttention(
        (out_proj): NonDynamicallyQuantizableLinear(in_features=1280, out_features=1280, bias=True)
      )
      (ls_1): Identity()
      (ln_2): LayerNorm((1280,), eps=1e-05, elementwise_affine=True)
      (mlp): Sequential(
        (c_fc): Linear(in_features=1280, out_features=5120, bias=True)
        (gelu): GELU(approximate=none)
        (c_proj): Linear(in_features=5120, out_features=1280, bias=True)
      )
      (ls_2): Identity()
    )
    (2): ResidualAttentionBlock(
      (ln_1): LayerNorm((1280,), eps=1e-05, elementwise_affine=True)
      (attn): MultiheadAttention(
        (out_proj): NonDynamicallyQuantizableLinear(in_features=1280, out_features=1280, bias=True)
      )
      (ls_1): Identity()
      (ln_2): LayerNorm((1280,), eps=1e-05, elementwise_affine=True)
      (mlp): Sequential(
        (c_fc): Linear(in_features=1280, out_features=5120, bias=True)
        (gelu): GELU(approximate=none)
        (c_proj): Linear(in_features=5120, out_features=1280, bias=True)
      )
      (ls_2): Identity()
    )
    (3): ResidualAttentionBlock(
      (ln_1): LayerNorm((1280,), eps=1e-05, elementwise_affine=True)
      (attn): MultiheadAttention(
        (out_proj): NonDynamicallyQuantizableLinear(in_features=1280, out_features=1280, bias=True)
      )
      (ls_1): Identity()
      (ln_2): LayerNorm((1280,), eps=1e-05, elementwise_affine=True)
      (mlp): Sequential(
        (c_fc): Linear(in_features=1280, out_features=5120, bias=True)
        (gelu): GELU(approximate=none)
        (c_proj): Linear(in_features=5120, out_features=1280, bias=True)
      )
      (ls_2): Identity()
    )
    (4): ResidualAttentionBlock(
      (ln_1): LayerNorm((1280,), eps=1e-05, elementwise_affine=True)
      (attn): MultiheadAttention(
        (out_proj): NonDynamicallyQuantizableLinear(in_features=1280, out_features=1280, bias=True)
      )
      (ls_1): Identity()
      (ln_2): LayerNorm((1280,), eps=1e-05, elementwise_affine=True)
      (mlp): Sequential(
        (c_fc): Linear(in_features=1280, out_features=5120, bias=True)
        (gelu): GELU(approximate=none)
        (c_proj): Linear(in_features=5120, out_features=1280, bias=True)
      )
      (ls_2): Identity()
    )
    (5): ResidualAttentionBlock(
      (ln_1): LayerNorm((1280,), eps=1e-05, elementwise_affine=True)
      (attn): MultiheadAttention(
        (out_proj): NonDynamicallyQuantizableLinear(in_features=1280, out_features=1280, bias=True)
      )
      (ls_1): Identity()
      (ln_2): LayerNorm((1280,), eps=1e-05, elementwise_affine=True)
      (mlp): Sequential(
        (c_fc): Linear(in_features=1280, out_features=5120, bias=True)
        (gelu): GELU(approximate=none)
        (c_proj): Linear(in_features=5120, out_features=1280, bias=True)
      )
      (ls_2): Identity()
    )
    (6): ResidualAttentionBlock(
      (ln_1): LayerNorm((1280,), eps=1e-05, elementwise_affine=True)
      (attn): MultiheadAttention(
        (out_proj): NonDynamicallyQuantizableLinear(in_features=1280, out_features=1280, bias=True)
      )
      (ls_1): Identity()
      (ln_2): LayerNorm((1280,), eps=1e-05, elementwise_affine=True)
      (mlp): Sequential(
        (c_fc): Linear(in_features=1280, out_features=5120, bias=True)
        (gelu): GELU(approximate=none)
        (c_proj): Linear(in_features=5120, out_features=1280, bias=True)
      )
      (ls_2): Identity()
    )
    (7): ResidualAttentionBlock(
      (ln_1): LayerNorm((1280,), eps=1e-05, elementwise_affine=True)
      (attn): MultiheadAttention(
        (out_proj): NonDynamicallyQuantizableLinear(in_features=1280, out_features=1280, bias=True)
      )
      (ls_1): Identity()
      (ln_2): LayerNorm((1280,), eps=1e-05, elementwise_affine=True)
      (mlp): Sequential(
        (c_fc): Linear(in_features=1280, out_features=5120, bias=True)
        (gelu): GELU(approximate=none)
        (c_proj): Linear(in_features=5120, out_features=1280, bias=True)
      )
      (ls_2): Identity()
    )
    (8): ResidualAttentionBlock(
      (ln_1): LayerNorm((1280,), eps=1e-05, elementwise_affine=True)
      (attn): MultiheadAttention(
        (out_proj): NonDynamicallyQuantizableLinear(in_features=1280, out_features=1280, bias=True)
      )
      (ls_1): Identity()
      (ln_2): LayerNorm((1280,), eps=1e-05, elementwise_affine=True)
      (mlp): Sequential(
        (c_fc): Linear(in_features=1280, out_features=5120, bias=True)
        (gelu): GELU(approximate=none)
        (c_proj): Linear(in_features=5120, out_features=1280, bias=True)
      )
      (ls_2): Identity()
    )
    (9): ResidualAttentionBlock(
      (ln_1): LayerNorm((1280,), eps=1e-05, elementwise_affine=True)
      (attn): MultiheadAttention(
        (out_proj): NonDynamicallyQuantizableLinear(in_features=1280, out_features=1280, bias=True)
      )
      (ls_1): Identity()
      (ln_2): LayerNorm((1280,), eps=1e-05, elementwise_affine=True)
      (mlp): Sequential(
        (c_fc): Linear(in_features=1280, out_features=5120, bias=True)
        (gelu): GELU(approximate=none)
        (c_proj): Linear(in_features=5120, out_features=1280, bias=True)
      )
      (ls_2): Identity()
    )
    (10): ResidualAttentionBlock(
      (ln_1): LayerNorm((1280,), eps=1e-05, elementwise_affine=True)
      (attn): MultiheadAttention(
        (out_proj): NonDynamicallyQuantizableLinear(in_features=1280, out_features=1280, bias=True)
      )
      (ls_1): Identity()
      (ln_2): LayerNorm((1280,), eps=1e-05, elementwise_affine=True)
      (mlp): Sequential(
        (c_fc): Linear(in_features=1280, out_features=5120, bias=True)
        (gelu): GELU(approximate=none)
        (c_proj): Linear(in_features=5120, out_features=1280, bias=True)
      )
      (ls_2): Identity()
    )
    (11): ResidualAttentionBlock(
      (ln_1): LayerNorm((1280,), eps=1e-05, elementwise_affine=True)
      (attn): MultiheadAttention(
        (out_proj): NonDynamicallyQuantizableLinear(in_features=1280, out_features=1280, bias=True)
      )
      (ls_1): Identity()
      (ln_2): LayerNorm((1280,), eps=1e-05, elementwise_affine=True)
      (mlp): Sequential(
        (c_fc): Linear(in_features=1280, out_features=5120, bias=True)
        (gelu): GELU(approximate=none)
        (c_proj): Linear(in_features=5120, out_features=1280, bias=True)
      )
      (ls_2): Identity()
    )
    (12): ResidualAttentionBlock(
      (ln_1): LayerNorm((1280,), eps=1e-05, elementwise_affine=True)
      (attn): MultiheadAttention(
        (out_proj): NonDynamicallyQuantizableLinear(in_features=1280, out_features=1280, bias=True)
      )
      (ls_1): Identity()
      (ln_2): LayerNorm((1280,), eps=1e-05, elementwise_affine=True)
      (mlp): Sequential(
        (c_fc): Linear(in_features=1280, out_features=5120, bias=True)
        (gelu): GELU(approximate=none)
        (c_proj): Linear(in_features=5120, out_features=1280, bias=True)
      )
      (ls_2): Identity()
    )
    (13): ResidualAttentionBlock(
      (ln_1): LayerNorm((1280,), eps=1e-05, elementwise_affine=True)
      (attn): MultiheadAttention(
        (out_proj): NonDynamicallyQuantizableLinear(in_features=1280, out_features=1280, bias=True)
      )
      (ls_1): Identity()
      (ln_2): LayerNorm((1280,), eps=1e-05, elementwise_affine=True)
      (mlp): Sequential(
        (c_fc): Linear(in_features=1280, out_features=5120, bias=True)
        (gelu): GELU(approximate=none)
        (c_proj): Linear(in_features=5120, out_features=1280, bias=True)
      )
      (ls_2): Identity()
    )
    (14): ResidualAttentionBlock(
      (ln_1): LayerNorm((1280,), eps=1e-05, elementwise_affine=True)
      (attn): MultiheadAttention(
        (out_proj): NonDynamicallyQuantizableLinear(in_features=1280, out_features=1280, bias=True)
      )
      (ls_1): Identity()
      (ln_2): LayerNorm((1280,), eps=1e-05, elementwise_affine=True)
      (mlp): Sequential(
        (c_fc): Linear(in_features=1280, out_features=5120, bias=True)
        (gelu): GELU(approximate=none)
        (c_proj): Linear(in_features=5120, out_features=1280, bias=True)
      )
      (ls_2): Identity()
    )
    (15): ResidualAttentionBlock(
      (ln_1): LayerNorm((1280,), eps=1e-05, elementwise_affine=True)
      (attn): MultiheadAttention(
        (out_proj): NonDynamicallyQuantizableLinear(in_features=1280, out_features=1280, bias=True)
      )
      (ls_1): Identity()
      (ln_2): LayerNorm((1280,), eps=1e-05, elementwise_affine=True)
      (mlp): Sequential(
        (c_fc): Linear(in_features=1280, out_features=5120, bias=True)
        (gelu): GELU(approximate=none)
        (c_proj): Linear(in_features=5120, out_features=1280, bias=True)
      )
      (ls_2): Identity()
    )
    (16): ResidualAttentionBlock(
      (ln_1): LayerNorm((1280,), eps=1e-05, elementwise_affine=True)
      (attn): MultiheadAttention(
        (out_proj): NonDynamicallyQuantizableLinear(in_features=1280, out_features=1280, bias=True)
      )
      (ls_1): Identity()
      (ln_2): LayerNorm((1280,), eps=1e-05, elementwise_affine=True)
      (mlp): Sequential(
        (c_fc): Linear(in_features=1280, out_features=5120, bias=True)
        (gelu): GELU(approximate=none)
        (c_proj): Linear(in_features=5120, out_features=1280, bias=True)
      )
      (ls_2): Identity()
    )
    (17): ResidualAttentionBlock(
      (ln_1): LayerNorm((1280,), eps=1e-05, elementwise_affine=True)
      (attn): MultiheadAttention(
        (out_proj): NonDynamicallyQuantizableLinear(in_features=1280, out_features=1280, bias=True)
      )
      (ls_1): Identity()
      (ln_2): LayerNorm((1280,), eps=1e-05, elementwise_affine=True)
      (mlp): Sequential(
        (c_fc): Linear(in_features=1280, out_features=5120, bias=True)
        (gelu): GELU(approximate=none)
        (c_proj): Linear(in_features=5120, out_features=1280, bias=True)
      )
      (ls_2): Identity()
    )
    (18): ResidualAttentionBlock(
      (ln_1): LayerNorm((1280,), eps=1e-05, elementwise_affine=True)
      (attn): MultiheadAttention(
        (out_proj): NonDynamicallyQuantizableLinear(in_features=1280, out_features=1280, bias=True)
      )
      (ls_1): Identity()
      (ln_2): LayerNorm((1280,), eps=1e-05, elementwise_affine=True)
      (mlp): Sequential(
        (c_fc): Linear(in_features=1280, out_features=5120, bias=True)
        (gelu): GELU(approximate=none)
        (c_proj): Linear(in_features=5120, out_features=1280, bias=True)
      )
      (ls_2): Identity()
    )
    (19): ResidualAttentionBlock(
      (ln_1): LayerNorm((1280,), eps=1e-05, elementwise_affine=True)
      (attn): MultiheadAttention(
        (out_proj): NonDynamicallyQuantizableLinear(in_features=1280, out_features=1280, bias=True)
      )
      (ls_1): Identity()
      (ln_2): LayerNorm((1280,), eps=1e-05, elementwise_affine=True)
      (mlp): Sequential(
        (c_fc): Linear(in_features=1280, out_features=5120, bias=True)
        (gelu): GELU(approximate=none)
        (c_proj): Linear(in_features=5120, out_features=1280, bias=True)
      )
      (ls_2): Identity()
    )
    (20): ResidualAttentionBlock(
      (ln_1): LayerNorm((1280,), eps=1e-05, elementwise_affine=True)
      (attn): MultiheadAttention(
        (out_proj): NonDynamicallyQuantizableLinear(in_features=1280, out_features=1280, bias=True)
      )
      (ls_1): Identity()
      (ln_2): LayerNorm((1280,), eps=1e-05, elementwise_affine=True)
      (mlp): Sequential(
        (c_fc): Linear(in_features=1280, out_features=5120, bias=True)
        (gelu): GELU(approximate=none)
        (c_proj): Linear(in_features=5120, out_features=1280, bias=True)
      )
      (ls_2): Identity()
    )
    (21): ResidualAttentionBlock(
      (ln_1): LayerNorm((1280,), eps=1e-05, elementwise_affine=True)
      (attn): MultiheadAttention(
        (out_proj): NonDynamicallyQuantizableLinear(in_features=1280, out_features=1280, bias=True)
      )
      (ls_1): Identity()
      (ln_2): LayerNorm((1280,), eps=1e-05, elementwise_affine=True)
      (mlp): Sequential(
        (c_fc): Linear(in_features=1280, out_features=5120, bias=True)
        (gelu): GELU(approximate=none)
        (c_proj): Linear(in_features=5120, out_features=1280, bias=True)
      )
      (ls_2): Identity()
    )
    (22): ResidualAttentionBlock(
      (ln_1): LayerNorm((1280,), eps=1e-05, elementwise_affine=True)
      (attn): MultiheadAttention(
        (out_proj): NonDynamicallyQuantizableLinear(in_features=1280, out_features=1280, bias=True)
      )
      (ls_1): Identity()
      (ln_2): LayerNorm((1280,), eps=1e-05, elementwise_affine=True)
      (mlp): Sequential(
        (c_fc): Linear(in_features=1280, out_features=5120, bias=True)
        (gelu): GELU(approximate=none)
        (c_proj): Linear(in_features=5120, out_features=1280, bias=True)
      )
      (ls_2): Identity()
    )
    (23): ResidualAttentionBlock(
      (ln_1): LayerNorm((1280,), eps=1e-05, elementwise_affine=True)
      (attn): MultiheadAttention(
        (out_proj): NonDynamicallyQuantizableLinear(in_features=1280, out_features=1280, bias=True)
      )
      (ls_1): Identity()
      (ln_2): LayerNorm((1280,), eps=1e-05, elementwise_affine=True)
      (mlp): Sequential(
        (c_fc): Linear(in_features=1280, out_features=5120, bias=True)
        (gelu): GELU(approximate=none)
        (c_proj): Linear(in_features=5120, out_features=1280, bias=True)
      )
      (ls_2): Identity()
    )
    (24): ResidualAttentionBlock(
      (ln_1): LayerNorm((1280,), eps=1e-05, elementwise_affine=True)
      (attn): MultiheadAttention(
        (out_proj): NonDynamicallyQuantizableLinear(in_features=1280, out_features=1280, bias=True)
      )
      (ls_1): Identity()
      (ln_2): LayerNorm((1280,), eps=1e-05, elementwise_affine=True)
      (mlp): Sequential(
        (c_fc): Linear(in_features=1280, out_features=5120, bias=True)
        (gelu): GELU(approximate=none)
        (c_proj): Linear(in_features=5120, out_features=1280, bias=True)
      )
      (ls_2): Identity()
    )
    (25): ResidualAttentionBlock(
      (ln_1): LayerNorm((1280,), eps=1e-05, elementwise_affine=True)
      (attn): MultiheadAttention(
        (out_proj): NonDynamicallyQuantizableLinear(in_features=1280, out_features=1280, bias=True)
      )
      (ls_1): Identity()
      (ln_2): LayerNorm((1280,), eps=1e-05, elementwise_affine=True)
      (mlp): Sequential(
        (c_fc): Linear(in_features=1280, out_features=5120, bias=True)
        (gelu): GELU(approximate=none)
        (c_proj): Linear(in_features=5120, out_features=1280, bias=True)
      )
      (ls_2): Identity()
    )
    (26): ResidualAttentionBlock(
      (ln_1): LayerNorm((1280,), eps=1e-05, elementwise_affine=True)
      (attn): MultiheadAttention(
        (out_proj): NonDynamicallyQuantizableLinear(in_features=1280, out_features=1280, bias=True)
      )
      (ls_1): Identity()
      (ln_2): LayerNorm((1280,), eps=1e-05, elementwise_affine=True)
      (mlp): Sequential(
        (c_fc): Linear(in_features=1280, out_features=5120, bias=True)
        (gelu): GELU(approximate=none)
        (c_proj): Linear(in_features=5120, out_features=1280, bias=True)
      )
      (ls_2): Identity()
    )
    (27): ResidualAttentionBlock(
      (ln_1): LayerNorm((1280,), eps=1e-05, elementwise_affine=True)
      (attn): MultiheadAttention(
        (out_proj): NonDynamicallyQuantizableLinear(in_features=1280, out_features=1280, bias=True)
      )
      (ls_1): Identity()
      (ln_2): LayerNorm((1280,), eps=1e-05, elementwise_affine=True)
      (mlp): Sequential(
        (c_fc): Linear(in_features=1280, out_features=5120, bias=True)
        (gelu): GELU(approximate=none)
        (c_proj): Linear(in_features=5120, out_features=1280, bias=True)
      )
      (ls_2): Identity()
    )
    (28): ResidualAttentionBlock(
      (ln_1): LayerNorm((1280,), eps=1e-05, elementwise_affine=True)
      (attn): MultiheadAttention(
        (out_proj): NonDynamicallyQuantizableLinear(in_features=1280, out_features=1280, bias=True)
      )
      (ls_1): Identity()
      (ln_2): LayerNorm((1280,), eps=1e-05, elementwise_affine=True)
      (mlp): Sequential(
        (c_fc): Linear(in_features=1280, out_features=5120, bias=True)
        (gelu): GELU(approximate=none)
        (c_proj): Linear(in_features=5120, out_features=1280, bias=True)
      )
      (ls_2): Identity()
    )
    (29): ResidualAttentionBlock(
      (ln_1): LayerNorm((1280,), eps=1e-05, elementwise_affine=True)
      (attn): MultiheadAttention(
        (out_proj): NonDynamicallyQuantizableLinear(in_features=1280, out_features=1280, bias=True)
      )
      (ls_1): Identity()
      (ln_2): LayerNorm((1280,), eps=1e-05, elementwise_affine=True)
      (mlp): Sequential(
        (c_fc): Linear(in_features=1280, out_features=5120, bias=True)
        (gelu): GELU(approximate=none)
        (c_proj): Linear(in_features=5120, out_features=1280, bias=True)
      )
      (ls_2): Identity()
    )
    (30): ResidualAttentionBlock(
      (ln_1): LayerNorm((1280,), eps=1e-05, elementwise_affine=True)
      (attn): MultiheadAttention(
        (out_proj): NonDynamicallyQuantizableLinear(in_features=1280, out_features=1280, bias=True)
      )
      (ls_1): Identity()
      (ln_2): LayerNorm((1280,), eps=1e-05, elementwise_affine=True)
      (mlp): Sequential(
        (c_fc): Linear(in_features=1280, out_features=5120, bias=True)
        (gelu): GELU(approximate=none)
        (c_proj): Linear(in_features=5120, out_features=1280, bias=True)
      )
      (ls_2): Identity()
    )
    (31): ResidualAttentionBlock(
      (ln_1): LayerNorm((1280,), eps=1e-05, elementwise_affine=True)
      (attn): MultiheadAttention(
        (out_proj): NonDynamicallyQuantizableLinear(in_features=1280, out_features=1280, bias=True)
      )
      (ls_1): Identity()
      (ln_2): LayerNorm((1280,), eps=1e-05, elementwise_affine=True)
      (mlp): Sequential(
        (c_fc): Linear(in_features=1280, out_features=5120, bias=True)
        (gelu): GELU(approximate=none)
        (c_proj): Linear(in_features=5120, out_features=1280, bias=True)
      )
      (ls_2): Identity()
    )
  )
)
self.transformer size is 629678080
visual size 632076800
visual tower size is 632076800
Transformer(
  (resblocks): ModuleList(
    (0): ResidualAttentionBlock(
      (ln_1): LayerNorm((1280,), eps=1e-05, elementwise_affine=True)
      (attn): MultiheadAttention(
        (out_proj): NonDynamicallyQuantizableLinear(in_features=1280, out_features=1280, bias=True)
      )
      (ls_1): Identity()
      (ln_2): LayerNorm((1280,), eps=1e-05, elementwise_affine=True)
      (mlp): Sequential(
        (c_fc): Linear(in_features=1280, out_features=5120, bias=True)
        (gelu): GELU(approximate=none)
        (c_proj): Linear(in_features=5120, out_features=1280, bias=True)
      )
      (ls_2): Identity()
    )
    (1): ResidualAttentionBlock(
      (ln_1): LayerNorm((1280,), eps=1e-05, elementwise_affine=True)
      (attn): MultiheadAttention(
        (out_proj): NonDynamicallyQuantizableLinear(in_features=1280, out_features=1280, bias=True)
      )
      (ls_1): Identity()
      (ln_2): LayerNorm((1280,), eps=1e-05, elementwise_affine=True)
      (mlp): Sequential(
        (c_fc): Linear(in_features=1280, out_features=5120, bias=True)
        (gelu): GELU(approximate=none)
        (c_proj): Linear(in_features=5120, out_features=1280, bias=True)
      )
      (ls_2): Identity()
    )
    (2): ResidualAttentionBlock(
      (ln_1): LayerNorm((1280,), eps=1e-05, elementwise_affine=True)
      (attn): MultiheadAttention(
        (out_proj): NonDynamicallyQuantizableLinear(in_features=1280, out_features=1280, bias=True)
      )
      (ls_1): Identity()
      (ln_2): LayerNorm((1280,), eps=1e-05, elementwise_affine=True)
      (mlp): Sequential(
        (c_fc): Linear(in_features=1280, out_features=5120, bias=True)
        (gelu): GELU(approximate=none)
        (c_proj): Linear(in_features=5120, out_features=1280, bias=True)
      )
      (ls_2): Identity()
    )
    (3): ResidualAttentionBlock(
      (ln_1): LayerNorm((1280,), eps=1e-05, elementwise_affine=True)
      (attn): MultiheadAttention(
        (out_proj): NonDynamicallyQuantizableLinear(in_features=1280, out_features=1280, bias=True)
      )
      (ls_1): Identity()
      (ln_2): LayerNorm((1280,), eps=1e-05, elementwise_affine=True)
      (mlp): Sequential(
        (c_fc): Linear(in_features=1280, out_features=5120, bias=True)
        (gelu): GELU(approximate=none)
        (c_proj): Linear(in_features=5120, out_features=1280, bias=True)
      )
      (ls_2): Identity()
    )
    (4): ResidualAttentionBlock(
      (ln_1): LayerNorm((1280,), eps=1e-05, elementwise_affine=True)
      (attn): MultiheadAttention(
        (out_proj): NonDynamicallyQuantizableLinear(in_features=1280, out_features=1280, bias=True)
      )
      (ls_1): Identity()
      (ln_2): LayerNorm((1280,), eps=1e-05, elementwise_affine=True)
      (mlp): Sequential(
        (c_fc): Linear(in_features=1280, out_features=5120, bias=True)
        (gelu): GELU(approximate=none)
        (c_proj): Linear(in_features=5120, out_features=1280, bias=True)
      )
      (ls_2): Identity()
    )
    (5): ResidualAttentionBlock(
      (ln_1): LayerNorm((1280,), eps=1e-05, elementwise_affine=True)
      (attn): MultiheadAttention(
        (out_proj): NonDynamicallyQuantizableLinear(in_features=1280, out_features=1280, bias=True)
      )
      (ls_1): Identity()
      (ln_2): LayerNorm((1280,), eps=1e-05, elementwise_affine=True)
      (mlp): Sequential(
        (c_fc): Linear(in_features=1280, out_features=5120, bias=True)
        (gelu): GELU(approximate=none)
        (c_proj): Linear(in_features=5120, out_features=1280, bias=True)
      )
      (ls_2): Identity()
    )
    (6): ResidualAttentionBlock(
      (ln_1): LayerNorm((1280,), eps=1e-05, elementwise_affine=True)
      (attn): MultiheadAttention(
        (out_proj): NonDynamicallyQuantizableLinear(in_features=1280, out_features=1280, bias=True)
      )
      (ls_1): Identity()
      (ln_2): LayerNorm((1280,), eps=1e-05, elementwise_affine=True)
      (mlp): Sequential(
        (c_fc): Linear(in_features=1280, out_features=5120, bias=True)
        (gelu): GELU(approximate=none)
        (c_proj): Linear(in_features=5120, out_features=1280, bias=True)
      )
      (ls_2): Identity()
    )
    (7): ResidualAttentionBlock(
      (ln_1): LayerNorm((1280,), eps=1e-05, elementwise_affine=True)
      (attn): MultiheadAttention(
        (out_proj): NonDynamicallyQuantizableLinear(in_features=1280, out_features=1280, bias=True)
      )
      (ls_1): Identity()
      (ln_2): LayerNorm((1280,), eps=1e-05, elementwise_affine=True)
      (mlp): Sequential(
        (c_fc): Linear(in_features=1280, out_features=5120, bias=True)
        (gelu): GELU(approximate=none)
        (c_proj): Linear(in_features=5120, out_features=1280, bias=True)
      )
      (ls_2): Identity()
    )
    (8): ResidualAttentionBlock(
      (ln_1): LayerNorm((1280,), eps=1e-05, elementwise_affine=True)
      (attn): MultiheadAttention(
        (out_proj): NonDynamicallyQuantizableLinear(in_features=1280, out_features=1280, bias=True)
      )
      (ls_1): Identity()
      (ln_2): LayerNorm((1280,), eps=1e-05, elementwise_affine=True)
      (mlp): Sequential(
        (c_fc): Linear(in_features=1280, out_features=5120, bias=True)
        (gelu): GELU(approximate=none)
        (c_proj): Linear(in_features=5120, out_features=1280, bias=True)
      )
      (ls_2): Identity()
    )
    (9): ResidualAttentionBlock(
      (ln_1): LayerNorm((1280,), eps=1e-05, elementwise_affine=True)
      (attn): MultiheadAttention(
        (out_proj): NonDynamicallyQuantizableLinear(in_features=1280, out_features=1280, bias=True)
      )
      (ls_1): Identity()
      (ln_2): LayerNorm((1280,), eps=1e-05, elementwise_affine=True)
      (mlp): Sequential(
        (c_fc): Linear(in_features=1280, out_features=5120, bias=True)
        (gelu): GELU(approximate=none)
        (c_proj): Linear(in_features=5120, out_features=1280, bias=True)
      )
      (ls_2): Identity()
    )
    (10): ResidualAttentionBlock(
      (ln_1): LayerNorm((1280,), eps=1e-05, elementwise_affine=True)
      (attn): MultiheadAttention(
        (out_proj): NonDynamicallyQuantizableLinear(in_features=1280, out_features=1280, bias=True)
      )
      (ls_1): Identity()
      (ln_2): LayerNorm((1280,), eps=1e-05, elementwise_affine=True)
      (mlp): Sequential(
        (c_fc): Linear(in_features=1280, out_features=5120, bias=True)
        (gelu): GELU(approximate=none)
        (c_proj): Linear(in_features=5120, out_features=1280, bias=True)
      )
      (ls_2): Identity()
    )
    (11): ResidualAttentionBlock(
      (ln_1): LayerNorm((1280,), eps=1e-05, elementwise_affine=True)
      (attn): MultiheadAttention(
        (out_proj): NonDynamicallyQuantizableLinear(in_features=1280, out_features=1280, bias=True)
      )
      (ls_1): Identity()
      (ln_2): LayerNorm((1280,), eps=1e-05, elementwise_affine=True)
      (mlp): Sequential(
        (c_fc): Linear(in_features=1280, out_features=5120, bias=True)
        (gelu): GELU(approximate=none)
        (c_proj): Linear(in_features=5120, out_features=1280, bias=True)
      )
      (ls_2): Identity()
    )
    (12): ResidualAttentionBlock(
      (ln_1): LayerNorm((1280,), eps=1e-05, elementwise_affine=True)
      (attn): MultiheadAttention(
        (out_proj): NonDynamicallyQuantizableLinear(in_features=1280, out_features=1280, bias=True)
      )
      (ls_1): Identity()
      (ln_2): LayerNorm((1280,), eps=1e-05, elementwise_affine=True)
      (mlp): Sequential(
        (c_fc): Linear(in_features=1280, out_features=5120, bias=True)
        (gelu): GELU(approximate=none)
        (c_proj): Linear(in_features=5120, out_features=1280, bias=True)
      )
      (ls_2): Identity()
    )
    (13): ResidualAttentionBlock(
      (ln_1): LayerNorm((1280,), eps=1e-05, elementwise_affine=True)
      (attn): MultiheadAttention(
        (out_proj): NonDynamicallyQuantizableLinear(in_features=1280, out_features=1280, bias=True)
      )
      (ls_1): Identity()
      (ln_2): LayerNorm((1280,), eps=1e-05, elementwise_affine=True)
      (mlp): Sequential(
        (c_fc): Linear(in_features=1280, out_features=5120, bias=True)
        (gelu): GELU(approximate=none)
        (c_proj): Linear(in_features=5120, out_features=1280, bias=True)
      )
      (ls_2): Identity()
    )
    (14): ResidualAttentionBlock(
      (ln_1): LayerNorm((1280,), eps=1e-05, elementwise_affine=True)
      (attn): MultiheadAttention(
        (out_proj): NonDynamicallyQuantizableLinear(in_features=1280, out_features=1280, bias=True)
      )
      (ls_1): Identity()
      (ln_2): LayerNorm((1280,), eps=1e-05, elementwise_affine=True)
      (mlp): Sequential(
        (c_fc): Linear(in_features=1280, out_features=5120, bias=True)
        (gelu): GELU(approximate=none)
        (c_proj): Linear(in_features=5120, out_features=1280, bias=True)
      )
      (ls_2): Identity()
    )
    (15): ResidualAttentionBlock(
      (ln_1): LayerNorm((1280,), eps=1e-05, elementwise_affine=True)
      (attn): MultiheadAttention(
        (out_proj): NonDynamicallyQuantizableLinear(in_features=1280, out_features=1280, bias=True)
      )
      (ls_1): Identity()
      (ln_2): LayerNorm((1280,), eps=1e-05, elementwise_affine=True)
      (mlp): Sequential(
        (c_fc): Linear(in_features=1280, out_features=5120, bias=True)
        (gelu): GELU(approximate=none)
        (c_proj): Linear(in_features=5120, out_features=1280, bias=True)
      )
      (ls_2): Identity()
    )
    (16): ResidualAttentionBlock(
      (ln_1): LayerNorm((1280,), eps=1e-05, elementwise_affine=True)
      (attn): MultiheadAttention(
        (out_proj): NonDynamicallyQuantizableLinear(in_features=1280, out_features=1280, bias=True)
      )
      (ls_1): Identity()
      (ln_2): LayerNorm((1280,), eps=1e-05, elementwise_affine=True)
      (mlp): Sequential(
        (c_fc): Linear(in_features=1280, out_features=5120, bias=True)
        (gelu): GELU(approximate=none)
        (c_proj): Linear(in_features=5120, out_features=1280, bias=True)
      )
      (ls_2): Identity()
    )
    (17): ResidualAttentionBlock(
      (ln_1): LayerNorm((1280,), eps=1e-05, elementwise_affine=True)
      (attn): MultiheadAttention(
        (out_proj): NonDynamicallyQuantizableLinear(in_features=1280, out_features=1280, bias=True)
      )
      (ls_1): Identity()
      (ln_2): LayerNorm((1280,), eps=1e-05, elementwise_affine=True)
      (mlp): Sequential(
        (c_fc): Linear(in_features=1280, out_features=5120, bias=True)
        (gelu): GELU(approximate=none)
        (c_proj): Linear(in_features=5120, out_features=1280, bias=True)
      )
      (ls_2): Identity()
    )
    (18): ResidualAttentionBlock(
      (ln_1): LayerNorm((1280,), eps=1e-05, elementwise_affine=True)
      (attn): MultiheadAttention(
        (out_proj): NonDynamicallyQuantizableLinear(in_features=1280, out_features=1280, bias=True)
      )
      (ls_1): Identity()
      (ln_2): LayerNorm((1280,), eps=1e-05, elementwise_affine=True)
      (mlp): Sequential(
        (c_fc): Linear(in_features=1280, out_features=5120, bias=True)
        (gelu): GELU(approximate=none)
        (c_proj): Linear(in_features=5120, out_features=1280, bias=True)
      )
      (ls_2): Identity()
    )
    (19): ResidualAttentionBlock(
      (ln_1): LayerNorm((1280,), eps=1e-05, elementwise_affine=True)
      (attn): MultiheadAttention(
        (out_proj): NonDynamicallyQuantizableLinear(in_features=1280, out_features=1280, bias=True)
      )
      (ls_1): Identity()
      (ln_2): LayerNorm((1280,), eps=1e-05, elementwise_affine=True)
      (mlp): Sequential(
        (c_fc): Linear(in_features=1280, out_features=5120, bias=True)
        (gelu): GELU(approximate=none)
        (c_proj): Linear(in_features=5120, out_features=1280, bias=True)
      )
      (ls_2): Identity()
    )
    (20): ResidualAttentionBlock(
      (ln_1): LayerNorm((1280,), eps=1e-05, elementwise_affine=True)
      (attn): MultiheadAttention(
        (out_proj): NonDynamicallyQuantizableLinear(in_features=1280, out_features=1280, bias=True)
      )
      (ls_1): Identity()
      (ln_2): LayerNorm((1280,), eps=1e-05, elementwise_affine=True)
      (mlp): Sequential(
        (c_fc): Linear(in_features=1280, out_features=5120, bias=True)
        (gelu): GELU(approximate=none)
        (c_proj): Linear(in_features=5120, out_features=1280, bias=True)
      )
      (ls_2): Identity()
    )
    (21): ResidualAttentionBlock(
      (ln_1): LayerNorm((1280,), eps=1e-05, elementwise_affine=True)
      (attn): MultiheadAttention(
        (out_proj): NonDynamicallyQuantizableLinear(in_features=1280, out_features=1280, bias=True)
      )
      (ls_1): Identity()
      (ln_2): LayerNorm((1280,), eps=1e-05, elementwise_affine=True)
      (mlp): Sequential(
        (c_fc): Linear(in_features=1280, out_features=5120, bias=True)
        (gelu): GELU(approximate=none)
        (c_proj): Linear(in_features=5120, out_features=1280, bias=True)
      )
      (ls_2): Identity()
    )
    (22): ResidualAttentionBlock(
      (ln_1): LayerNorm((1280,), eps=1e-05, elementwise_affine=True)
      (attn): MultiheadAttention(
        (out_proj): NonDynamicallyQuantizableLinear(in_features=1280, out_features=1280, bias=True)
      )
      (ls_1): Identity()
      (ln_2): LayerNorm((1280,), eps=1e-05, elementwise_affine=True)
      (mlp): Sequential(
        (c_fc): Linear(in_features=1280, out_features=5120, bias=True)
        (gelu): GELU(approximate=none)
        (c_proj): Linear(in_features=5120, out_features=1280, bias=True)
      )
      (ls_2): Identity()
    )
    (23): ResidualAttentionBlock(
      (ln_1): LayerNorm((1280,), eps=1e-05, elementwise_affine=True)
      (attn): MultiheadAttention(
        (out_proj): NonDynamicallyQuantizableLinear(in_features=1280, out_features=1280, bias=True)
      )
      (ls_1): Identity()
      (ln_2): LayerNorm((1280,), eps=1e-05, elementwise_affine=True)
      (mlp): Sequential(
        (c_fc): Linear(in_features=1280, out_features=5120, bias=True)
        (gelu): GELU(approximate=none)
        (c_proj): Linear(in_features=5120, out_features=1280, bias=True)
      )
      (ls_2): Identity()
    )
    (24): ResidualAttentionBlock(
      (ln_1): LayerNorm((1280,), eps=1e-05, elementwise_affine=True)
      (attn): MultiheadAttention(
        (out_proj): NonDynamicallyQuantizableLinear(in_features=1280, out_features=1280, bias=True)
      )
      (ls_1): Identity()
      (ln_2): LayerNorm((1280,), eps=1e-05, elementwise_affine=True)
      (mlp): Sequential(
        (c_fc): Linear(in_features=1280, out_features=5120, bias=True)
        (gelu): GELU(approximate=none)
        (c_proj): Linear(in_features=5120, out_features=1280, bias=True)
      )
      (ls_2): Identity()
    )
    (25): ResidualAttentionBlock(
      (ln_1): LayerNorm((1280,), eps=1e-05, elementwise_affine=True)
      (attn): MultiheadAttention(
        (out_proj): NonDynamicallyQuantizableLinear(in_features=1280, out_features=1280, bias=True)
      )
      (ls_1): Identity()
      (ln_2): LayerNorm((1280,), eps=1e-05, elementwise_affine=True)
      (mlp): Sequential(
        (c_fc): Linear(in_features=1280, out_features=5120, bias=True)
        (gelu): GELU(approximate=none)
        (c_proj): Linear(in_features=5120, out_features=1280, bias=True)
      )
      (ls_2): Identity()
    )
    (26): ResidualAttentionBlock(
      (ln_1): LayerNorm((1280,), eps=1e-05, elementwise_affine=True)
      (attn): MultiheadAttention(
        (out_proj): NonDynamicallyQuantizableLinear(in_features=1280, out_features=1280, bias=True)
      )
      (ls_1): Identity()
      (ln_2): LayerNorm((1280,), eps=1e-05, elementwise_affine=True)
      (mlp): Sequential(
        (c_fc): Linear(in_features=1280, out_features=5120, bias=True)
        (gelu): GELU(approximate=none)
        (c_proj): Linear(in_features=5120, out_features=1280, bias=True)
      )
      (ls_2): Identity()
    )
    (27): ResidualAttentionBlock(
      (ln_1): LayerNorm((1280,), eps=1e-05, elementwise_affine=True)
      (attn): MultiheadAttention(
        (out_proj): NonDynamicallyQuantizableLinear(in_features=1280, out_features=1280, bias=True)
      )
      (ls_1): Identity()
      (ln_2): LayerNorm((1280,), eps=1e-05, elementwise_affine=True)
      (mlp): Sequential(
        (c_fc): Linear(in_features=1280, out_features=5120, bias=True)
        (gelu): GELU(approximate=none)
        (c_proj): Linear(in_features=5120, out_features=1280, bias=True)
      )
      (ls_2): Identity()
    )
    (28): ResidualAttentionBlock(
      (ln_1): LayerNorm((1280,), eps=1e-05, elementwise_affine=True)
      (attn): MultiheadAttention(
        (out_proj): NonDynamicallyQuantizableLinear(in_features=1280, out_features=1280, bias=True)
      )
      (ls_1): Identity()
      (ln_2): LayerNorm((1280,), eps=1e-05, elementwise_affine=True)
      (mlp): Sequential(
        (c_fc): Linear(in_features=1280, out_features=5120, bias=True)
        (gelu): GELU(approximate=none)
        (c_proj): Linear(in_features=5120, out_features=1280, bias=True)
      )
      (ls_2): Identity()
    )
    (29): ResidualAttentionBlock(
      (ln_1): LayerNorm((1280,), eps=1e-05, elementwise_affine=True)
      (attn): MultiheadAttention(
…
      (ls_1): Identity()
      (ln_2): LayerNorm((1024,), eps=1e-05, elementwise_affine=True)
      (mlp): Sequential(
        (c_fc): Linear(in_features=1024, out_features=4096, bias=True)
        (gelu): GELU(approximate=none)
        (c_proj): Linear(in_features=4096, out_features=1024, bias=True)
      )
      (ls_2): Identity()
    )
    (12): ResidualAttentionBlock(
      (ln_1): LayerNorm((1024,), eps=1e-05, elementwise_affine=True)
      (attn): MultiheadAttention(
        (out_proj): NonDynamicallyQuantizableLinear(in_features=1024, out_features=1024, bias=True)
      )
      (ls_1): Identity()
      (ln_2): LayerNorm((1024,), eps=1e-05, elementwise_affine=True)
      (mlp): Sequential(
        (c_fc): Linear(in_features=1024, out_features=4096, bias=True)
        (gelu): GELU(approximate=none)
        (c_proj): Linear(in_features=4096, out_features=1024, bias=True)
      )
      (ls_2): Identity()
    )
    (13): ResidualAttentionBlock(
      (ln_1): LayerNorm((1024,), eps=1e-05, elementwise_affine=True)
      (attn): MultiheadAttention(
        (out_proj): NonDynamicallyQuantizableLinear(in_features=1024, out_features=1024, bias=True)
      )
      (ls_1): Identity()
      (ln_2): LayerNorm((1024,), eps=1e-05, elementwise_affine=True)
      (mlp): Sequential(
        (c_fc): Linear(in_features=1024, out_features=4096, bias=True)
        (gelu): GELU(approximate=none)
        (c_proj): Linear(in_features=4096, out_features=1024, bias=True)
      )
      (ls_2): Identity()
    )
    (14): ResidualAttentionBlock(
      (ln_1): LayerNorm((1024,), eps=1e-05, elementwise_affine=True)
      (attn): MultiheadAttention(
        (out_proj): NonDynamicallyQuantizableLinear(in_features=1024, out_features=1024, bias=True)
      )
      (ls_1): Identity()
      (ln_2): LayerNorm((1024,), eps=1e-05, elementwise_affine=True)
      (mlp): Sequential(
        (c_fc): Linear(in_features=1024, out_features=4096, bias=True)
        (gelu): GELU(approximate=none)
        (c_proj): Linear(in_features=4096, out_features=1024, bias=True)
      )
      (ls_2): Identity()
    )
    (15): ResidualAttentionBlock(
      (ln_1): LayerNorm((1024,), eps=1e-05, elementwise_affine=True)
      (attn): MultiheadAttention(
        (out_proj): NonDynamicallyQuantizableLinear(in_features=1024, out_features=1024, bias=True)
      )
      (ls_1): Identity()
      (ln_2): LayerNorm((1024,), eps=1e-05, elementwise_affine=True)
      (mlp): Sequential(
        (c_fc): Linear(in_features=1024, out_features=4096, bias=True)
        (gelu): GELU(approximate=none)
        (c_proj): Linear(in_features=4096, out_features=1024, bias=True)
      )
      (ls_2): Identity()
    )
    (16): ResidualAttentionBlock(
      (ln_1): LayerNorm((1024,), eps=1e-05, elementwise_affine=True)
      (attn): MultiheadAttention(
        (out_proj): NonDynamicallyQuantizableLinear(in_features=1024, out_features=1024, bias=True)
      )
      (ls_1): Identity()
      (ln_2): LayerNorm((1024,), eps=1e-05, elementwise_affine=True)
      (mlp): Sequential(
        (c_fc): Linear(in_features=1024, out_features=4096, bias=True)
        (gelu): GELU(approximate=none)
        (c_proj): Linear(in_features=4096, out_features=1024, bias=True)
      )
      (ls_2): Identity()
    )
    (17): ResidualAttentionBlock(
      (ln_1): LayerNorm((1024,), eps=1e-05, elementwise_affine=True)
      (attn): MultiheadAttention(
        (out_proj): NonDynamicallyQuantizableLinear(in_features=1024, out_features=1024, bias=True)
      )
      (ls_1): Identity()
      (ln_2): LayerNorm((1024,), eps=1e-05, elementwise_affine=True)
      (mlp): Sequential(
        (c_fc): Linear(in_features=1024, out_features=4096, bias=True)
        (gelu): GELU(approximate=none)
        (c_proj): Linear(in_features=4096, out_features=1024, bias=True)
      )
      (ls_2): Identity()
    )
    (18): ResidualAttentionBlock(
      (ln_1): LayerNorm((1024,), eps=1e-05, elementwise_affine=True)
      (attn): MultiheadAttention(
        (out_proj): NonDynamicallyQuantizableLinear(in_features=1024, out_features=1024, bias=True)
      )
      (ls_1): Identity()
      (ln_2): LayerNorm((1024,), eps=1e-05, elementwise_affine=True)
      (mlp): Sequential(
        (c_fc): Linear(in_features=1024, out_features=4096, bias=True)
        (gelu): GELU(approximate=none)
        (c_proj): Linear(in_features=4096, out_features=1024, bias=True)
      )
      (ls_2): Identity()
    )
    (19): ResidualAttentionBlock(
      (ln_1): LayerNorm((1024,), eps=1e-05, elementwise_affine=True)
      (attn): MultiheadAttention(
        (out_proj): NonDynamicallyQuantizableLinear(in_features=1024, out_features=1024, bias=True)
      )
      (ls_1): Identity()
      (ln_2): LayerNorm((1024,), eps=1e-05, elementwise_affine=True)
      (mlp): Sequential(
        (c_fc): Linear(in_features=1024, out_features=4096, bias=True)
        (gelu): GELU(approximate=none)
        (c_proj): Linear(in_features=4096, out_features=1024, bias=True)
      )
      (ls_2): Identity()
    )
    (20): ResidualAttentionBlock(
      (ln_1): LayerNorm((1024,), eps=1e-05, elementwise_affine=True)
      (attn): MultiheadAttention(
        (out_proj): NonDynamicallyQuantizableLinear(in_features=1024, out_features=1024, bias=True)
      )
      (ls_1): Identity()
      (ln_2): LayerNorm((1024,), eps=1e-05, elementwise_affine=True)
      (mlp): Sequential(
        (c_fc): Linear(in_features=1024, out_features=4096, bias=True)
        (gelu): GELU(approximate=none)
        (c_proj): Linear(in_features=4096, out_features=1024, bias=True)
      )
      (ls_2): Identity()
    )
    (21): ResidualAttentionBlock(
      (ln_1): LayerNorm((1024,), eps=1e-05, elementwise_affine=True)
      (attn): MultiheadAttention(
        (out_proj): NonDynamicallyQuantizableLinear(in_features=1024, out_features=1024, bias=True)
      )
      (ls_1): Identity()
      (ln_2): LayerNorm((1024,), eps=1e-05, elementwise_affine=True)
      (mlp): Sequential(
        (c_fc): Linear(in_features=1024, out_features=4096, bias=True)
        (gelu): GELU(approximate=none)
        (c_proj): Linear(in_features=4096, out_features=1024, bias=True)
      )
      (ls_2): Identity()
    )
    (22): ResidualAttentionBlock(
      (ln_1): LayerNorm((1024,), eps=1e-05, elementwise_affine=True)
      (attn): MultiheadAttention(
        (out_proj): NonDynamicallyQuantizableLinear(in_features=1024, out_features=1024, bias=True)
      )
      (ls_1): Identity()
      (ln_2): LayerNorm((1024,), eps=1e-05, elementwise_affine=True)
      (mlp): Sequential(
        (c_fc): Linear(in_features=1024, out_features=4096, bias=True)
        (gelu): GELU(approximate=none)
        (c_proj): Linear(in_features=4096, out_features=1024, bias=True)
      )
      (ls_2): Identity()
    )
    (23): ResidualAttentionBlock(
      (ln_1): LayerNorm((1024,), eps=1e-05, elementwise_affine=True)
      (attn): MultiheadAttention(
        (out_proj): NonDynamicallyQuantizableLinear(in_features=1024, out_features=1024, bias=True)
      )
      (ls_1): Identity()
      (ln_2): LayerNorm((1024,), eps=1e-05, elementwise_affine=True)
      (mlp): Sequential(
        (c_fc): Linear(in_features=1024, out_features=4096, bias=True)
        (gelu): GELU(approximate=none)
        (c_proj): Linear(in_features=4096, out_features=1024, bias=True)
      )
      (ls_2): Identity()
    )
  )
)
Transformer(
  (resblocks): ModuleList(
    (0): ResidualAttentionBlock(
      (ln_1): LayerNorm((1024,), eps=1e-05, elementwise_affine=True)
      (attn): MultiheadAttention(
        (out_proj): NonDynamicallyQuantizableLinear(in_features=1024, out_features=1024, bias=True)
      )
      (ls_1): Identity()
      (ln_2): LayerNorm((1024,), eps=1e-05, elementwise_affine=True)
      (mlp): Sequential(
        (c_fc): Linear(in_features=1024, out_features=4096, bias=True)
        (gelu): GELU(approximate=none)
        (c_proj): Linear(in_features=4096, out_features=1024, bias=True)
      )
      (ls_2): Identity()
    )
    (1): ResidualAttentionBlock(
      (ln_1): LayerNorm((1024,), eps=1e-05, elementwise_affine=True)
      (attn): MultiheadAttention(
        (out_proj): NonDynamicallyQuantizableLinear(in_features=1024, out_features=1024, bias=True)
      )
      (ls_1): Identity()
      (ln_2): LayerNorm((1024,), eps=1e-05, elementwise_affine=True)
      (mlp): Sequential(
        (c_fc): Linear(in_features=1024, out_features=4096, bias=True)
        (gelu): GELU(approximate=none)
        (c_proj): Linear(in_features=4096, out_features=1024, bias=True)
      )
      (ls_2): Identity()
    )
    (2): ResidualAttentionBlock(
      (ln_1): LayerNorm((1024,), eps=1e-05, elementwise_affine=True)
      (attn): MultiheadAttention(
        (out_proj): NonDynamicallyQuantizableLinear(in_features=1024, out_features=1024, bias=True)
      )
      (ls_1): Identity()
      (ln_2): LayerNorm((1024,), eps=1e-05, elementwise_affine=True)
      (mlp): Sequential(
        (c_fc): Linear(in_features=1024, out_features=4096, bias=True)
        (gelu): GELU(approximate=none)
        (c_proj): Linear(in_features=4096, out_features=1024, bias=True)
      )
      (ls_2): Identity()
    )
    (3): ResidualAttentionBlock(
      (ln_1): LayerNorm((1024,), eps=1e-05, elementwise_affine=True)
      (attn): MultiheadAttention(
        (out_proj): NonDynamicallyQuantizableLinear(in_features=1024, out_features=1024, bias=True)
      )
      (ls_1): Identity()
      (ln_2): LayerNorm((1024,), eps=1e-05, elementwise_affine=True)
      (mlp): Sequential(
        (c_fc): Linear(in_features=1024, out_features=4096, bias=True)
        (gelu): GELU(approximate=none)
        (c_proj): Linear(in_features=4096, out_features=1024, bias=True)
      )
      (ls_2): Identity()
    )
    (4): ResidualAttentionBlock(
      (ln_1): LayerNorm((1024,), eps=1e-05, elementwise_affine=True)
      (attn): MultiheadAttention(
        (out_proj): NonDynamicallyQuantizableLinear(in_features=1024, out_features=1024, bias=True)
      )
      (ls_1): Identity()
      (ln_2): LayerNorm((1024,), eps=1e-05, elementwise_affine=True)
      (mlp): Sequential(
        (c_fc): Linear(in_features=1024, out_features=4096, bias=True)
        (gelu): GELU(approximate=none)
        (c_proj): Linear(in_features=4096, out_features=1024, bias=True)
      )
      (ls_2): Identity()
    )
    (5): ResidualAttentionBlock(
      (ln_1): LayerNorm((1024,), eps=1e-05, elementwise_affine=True)
      (attn): MultiheadAttention(
        (out_proj): NonDynamicallyQuantizableLinear(in_features=1024, out_features=1024, bias=True)
      )
      (ls_1): Identity()
      (ln_2): LayerNorm((1024,), eps=1e-05, elementwise_affine=True)
      (mlp): Sequential(
        (c_fc): Linear(in_features=1024, out_features=4096, bias=True)
        (gelu): GELU(approximate=none)
        (c_proj): Linear(in_features=4096, out_features=1024, bias=True)
      )
      (ls_2): Identity()
    )
    (6): ResidualAttentionBlock(
      (ln_1): LayerNorm((1024,), eps=1e-05, elementwise_affine=True)
      (attn): MultiheadAttention(
        (out_proj): NonDynamicallyQuantizableLinear(in_features=1024, out_features=1024, bias=True)
      )
      (ls_1): Identity()
      (ln_2): LayerNorm((1024,), eps=1e-05, elementwise_affine=True)
      (mlp): Sequential(
        (c_fc): Linear(in_features=1024, out_features=4096, bias=True)
        (gelu): GELU(approximate=none)
        (c_proj): Linear(in_features=4096, out_features=1024, bias=True)
      )
      (ls_2): Identity()
    )
    (7): ResidualAttentionBlock(
      (ln_1): LayerNorm((1024,), eps=1e-05, elementwise_affine=True)
      (attn): MultiheadAttention(
        (out_proj): NonDynamicallyQuantizableLinear(in_features=1024, out_features=1024, bias=True)
      )
      (ls_1): Identity()
      (ln_2): LayerNorm((1024,), eps=1e-05, elementwise_affine=True)
      (mlp): Sequential(
        (c_fc): Linear(in_features=1024, out_features=4096, bias=True)
        (gelu): GELU(approximate=none)
        (c_proj): Linear(in_features=4096, out_features=1024, bias=True)
      )
      (ls_2): Identity()
    )
    (8): ResidualAttentionBlock(
      (ln_1): LayerNorm((1024,), eps=1e-05, elementwise_affine=True)
      (attn): MultiheadAttention(
        (out_proj): NonDynamicallyQuantizableLinear(in_features=1024, out_features=1024, bias=True)
      )
      (ls_1): Identity()
      (ln_2): LayerNorm((1024,), eps=1e-05, elementwise_affine=True)
      (mlp): Sequential(
        (c_fc): Linear(in_features=1024, out_features=4096, bias=True)
        (gelu): GELU(approximate=none)
        (c_proj): Linear(in_features=4096, out_features=1024, bias=True)
      )
      (ls_2): Identity()
    )
    (9): ResidualAttentionBlock(
      (ln_1): LayerNorm((1024,), eps=1e-05, elementwise_affine=True)
      (attn): MultiheadAttention(
        (out_proj): NonDynamicallyQuantizableLinear(in_features=1024, out_features=1024, bias=True)
      )
      (ls_1): Identity()
      (ln_2): LayerNorm((1024,), eps=1e-05, elementwise_affine=True)
      (mlp): Sequential(
        (c_fc): Linear(in_features=1024, out_features=4096, bias=True)
        (gelu): GELU(approximate=none)
        (c_proj): Linear(in_features=4096, out_features=1024, bias=True)
      )
      (ls_2): Identity()
    )
    (10): ResidualAttentionBlock(
      (ln_1): LayerNorm((1024,), eps=1e-05, elementwise_affine=True)
      (attn): MultiheadAttention(
        (out_proj): NonDynamicallyQuantizableLinear(in_features=1024, out_features=1024, bias=True)
      )
      (ls_1): Identity()
      (ln_2): LayerNorm((1024,), eps=1e-05, elementwise_affine=True)
      (mlp): Sequential(
        (c_fc): Linear(in_features=1024, out_features=4096, bias=True)
        (gelu): GELU(approximate=none)
        (c_proj): Linear(in_features=4096, out_features=1024, bias=True)
      )
      (ls_2): Identity()
    )
    (11): ResidualAttentionBlock(
      (ln_1): LayerNorm((1024,), eps=1e-05, elementwise_affine=True)
      (attn): MultiheadAttention(
        (out_proj): NonDynamicallyQuantizableLinear(in_features=1024, out_features=1024, bias=True)
      )
      (ls_1): Identity()
      (ln_2): LayerNorm((1024,), eps=1e-05, elementwise_affine=True)
      (mlp): Sequential(
        (c_fc): Linear(in_features=1024, out_features=4096, bias=True)
        (gelu): GELU(approximate=none)
        (c_proj): Linear(in_features=4096, out_features=1024, bias=True)
      )
      (ls_2): Identity()
    )
    (12): ResidualAttentionBlock(
      (ln_1): LayerNorm((1024,), eps=1e-05, elementwise_affine=True)
      (attn): MultiheadAttention(
        (out_proj): NonDynamicallyQuantizableLinear(in_features=1024, out_features=1024, bias=True)
      )
      (ls_1): Identity()
      (ln_2): LayerNorm((1024,), eps=1e-05, elementwise_affine=True)
      (mlp): Sequential(
        (c_fc): Linear(in_features=1024, out_features=4096, bias=True)
        (gelu): GELU(approximate=none)
        (c_proj): Linear(in_features=4096, out_features=1024, bias=True)
      )
      (ls_2): Identity()
    )
    (13): ResidualAttentionBlock(
      (ln_1): LayerNorm((1024,), eps=1e-05, elementwise_affine=True)
      (attn): MultiheadAttention(
        (out_proj): NonDynamicallyQuantizableLinear(in_features=1024, out_features=1024, bias=True)
      )
      (ls_1): Identity()
      (ln_2): LayerNorm((1024,), eps=1e-05, elementwise_affine=True)
      (mlp): Sequential(
        (c_fc): Linear(in_features=1024, out_features=4096, bias=True)
        (gelu): GELU(approximate=none)
        (c_proj): Linear(in_features=4096, out_features=1024, bias=True)
      )
      (ls_2): Identity()
    )
    (14): ResidualAttentionBlock(
      (ln_1): LayerNorm((1024,), eps=1e-05, elementwise_affine=True)
      (attn): MultiheadAttention(
        (out_proj): NonDynamicallyQuantizableLinear(in_features=1024, out_features=1024, bias=True)
      )
      (ls_1): Identity()
      (ln_2): LayerNorm((1024,), eps=1e-05, elementwise_affine=True)
      (mlp): Sequential(
        (c_fc): Linear(in_features=1024, out_features=4096, bias=True)
        (gelu): GELU(approximate=none)
        (c_proj): Linear(in_features=4096, out_features=1024, bias=True)
      )
      (ls_2): Identity()
    )
    (15): ResidualAttentionBlock(
      (ln_1): LayerNorm((1024,), eps=1e-05, elementwise_affine=True)
      (attn): MultiheadAttention(
        (out_proj): NonDynamicallyQuantizableLinear(in_features=1024, out_features=1024, bias=True)
      )
      (ls_1): Identity()
      (ln_2): LayerNorm((1024,), eps=1e-05, elementwise_affine=True)
      (mlp): Sequential(
        (c_fc): Linear(in_features=1024, out_features=4096, bias=True)
        (gelu): GELU(approximate=none)
        (c_proj): Linear(in_features=4096, out_features=1024, bias=True)
      )
      (ls_2): Identity()
    )
    (16): ResidualAttentionBlock(
      (ln_1): LayerNorm((1024,), eps=1e-05, elementwise_affine=True)
      (attn): MultiheadAttention(
        (out_proj): NonDynamicallyQuantizableLinear(in_features=1024, out_features=1024, bias=True)
      )
      (ls_1): Identity()
      (ln_2): LayerNorm((1024,), eps=1e-05, elementwise_affine=True)
      (mlp): Sequential(
        (c_fc): Linear(in_features=1024, out_features=4096, bias=True)
        (gelu): GELU(approximate=none)
        (c_proj): Linear(in_features=4096, out_features=1024, bias=True)
      )
      (ls_2): Identity()
    )
    (17): ResidualAttentionBlock(
      (ln_1): LayerNorm((1024,), eps=1e-05, elementwise_affine=True)
      (attn): MultiheadAttention(
        (out_proj): NonDynamicallyQuantizableLinear(in_features=1024, out_features=1024, bias=True)
      )
      (ls_1): Identity()
      (ln_2): LayerNorm((1024,), eps=1e-05, elementwise_affine=True)
      (mlp): Sequential(
        (c_fc): Linear(in_features=1024, out_features=4096, bias=True)
        (gelu): GELU(approximate=none)
        (c_proj): Linear(in_features=4096, out_features=1024, bias=True)
      )
      (ls_2): Identity()
    )
    (18): ResidualAttentionBlock(
      (ln_1): LayerNorm((1024,), eps=1e-05, elementwise_affine=True)
      (attn): MultiheadAttention(
        (out_proj): NonDynamicallyQuantizableLinear(in_features=1024, out_features=1024, bias=True)
      )
      (ls_1): Identity()
      (ln_2): LayerNorm((1024,), eps=1e-05, elementwise_affine=True)
      (mlp): Sequential(
        (c_fc): Linear(in_features=1024, out_features=4096, bias=True)
        (gelu): GELU(approximate=none)
        (c_proj): Linear(in_features=4096, out_features=1024, bias=True)
      )
      (ls_2): Identity()
    )
    (19): ResidualAttentionBlock(
      (ln_1): LayerNorm((1024,), eps=1e-05, elementwise_affine=True)
      (attn): MultiheadAttention(
        (out_proj): NonDynamicallyQuantizableLinear(in_features=1024, out_features=1024, bias=True)
      )
      (ls_1): Identity()
      (ln_2): LayerNorm((1024,), eps=1e-05, elementwise_affine=True)
      (mlp): Sequential(
        (c_fc): Linear(in_features=1024, out_features=4096, bias=True)
        (gelu): GELU(approximate=none)
        (c_proj): Linear(in_features=4096, out_features=1024, bias=True)
      )
      (ls_2): Identity()
    )
    (20): ResidualAttentionBlock(
      (ln_1): LayerNorm((1024,), eps=1e-05, elementwise_affine=True)
      (attn): MultiheadAttention(
        (out_proj): NonDynamicallyQuantizableLinear(in_features=1024, out_features=1024, bias=True)
      )
      (ls_1): Identity()
      (ln_2): LayerNorm((1024,), eps=1e-05, elementwise_affine=True)
      (mlp): Sequential(
        (c_fc): Linear(in_features=1024, out_features=4096, bias=True)
        (gelu): GELU(approximate=none)
        (c_proj): Linear(in_features=4096, out_features=1024, bias=True)
      )
      (ls_2): Identity()
    )
    (21): ResidualAttentionBlock(
      (ln_1): LayerNorm((1024,), eps=1e-05, elementwise_affine=True)
      (attn): MultiheadAttention(
        (out_proj): NonDynamicallyQuantizableLinear(in_features=1024, out_features=1024, bias=True)
      )
      (ls_1): Identity()
      (ln_2): LayerNorm((1024,), eps=1e-05, elementwise_affine=True)
      (mlp): Sequential(
        (c_fc): Linear(in_features=1024, out_features=4096, bias=True)
        (gelu): GELU(approximate=none)
        (c_proj): Linear(in_features=4096, out_features=1024, bias=True)
      )
      (ls_2): Identity()
    )
    (22): ResidualAttentionBlock(
      (ln_1): LayerNorm((1024,), eps=1e-05, elementwise_affine=True)
      (attn): MultiheadAttention(
        (out_proj): NonDynamicallyQuantizableLinear(in_features=1024, out_features=1024, bias=True)
      )
      (ls_1): Identity()
      (ln_2): LayerNorm((1024,), eps=1e-05, elementwise_affine=True)
      (mlp): Sequential(
        (c_fc): Linear(in_features=1024, out_features=4096, bias=True)
        (gelu): GELU(approximate=none)
        (c_proj): Linear(in_features=4096, out_features=1024, bias=True)
      )
      (ls_2): Identity()
    )
    (23): ResidualAttentionBlock(
      (ln_1): LayerNorm((1024,), eps=1e-05, elementwise_affine=True)
      (attn): MultiheadAttention(
        (out_proj): NonDynamicallyQuantizableLinear(in_features=1024, out_features=1024, bias=True)
      )
      (ls_1): Identity()
      (ln_2): LayerNorm((1024,), eps=1e-05, elementwise_affine=True)
      (mlp): Sequential(
        (c_fc): Linear(in_features=1024, out_features=4096, bias=True)
        (gelu): GELU(approximate=none)
        (c_proj): Linear(in_features=4096, out_features=1024, bias=True)
      )
      (ls_2): Identity()
    )
  )
)
Transformer(
  (resblocks): ModuleList(
    (0): ResidualAttentionBlock(
      (ln_1): LayerNorm((1024,), eps=1e-05, elementwise_affine=True)
      (attn): MultiheadAttention(
        (out_proj): NonDynamicallyQuantizableLinear(in_features=1024, out_features=1024, bias=True)
      )
      (ls_1): Identity()
      (ln_2): LayerNorm((1024,), eps=1e-05, elementwise_affine=True)
      (mlp): Sequential(
        (c_fc): Linear(in_features=1024, out_features=4096, bias=True)
        (gelu): GELU(approximate=none)
        (c_proj): Linear(in_features=4096, out_features=1024, bias=True)
      )
      (ls_2): Identity()
    )
    (1): ResidualAttentionBlock(
      (ln_1): LayerNorm((1024,), eps=1e-05, elementwise_affine=True)
      (attn): MultiheadAttention(
        (out_proj): NonDynamicallyQuantizableLinear(in_features=1024, out_features=1024, bias=True)
      )
      (ls_1): Identity()
      (ln_2): LayerNorm((1024,), eps=1e-05, elementwise_affine=True)
      (mlp): Sequential(
        (c_fc): Linear(in_features=1024, out_features=4096, bias=True)
        (gelu): GELU(approximate=none)
        (c_proj): Linear(in_features=4096, out_features=1024, bias=True)
      )
      (ls_2): Identity()
    )
    (2): ResidualAttentionBlock(
      (ln_1): LayerNorm((1024,), eps=1e-05, elementwise_affine=True)
      (attn): MultiheadAttention(
        (out_proj): NonDynamicallyQuantizableLinear(in_features=1024, out_features=1024, bias=True)
      )
      (ls_1): Identity()
      (ln_2): LayerNorm((1024,), eps=1e-05, elementwise_affine=True)
      (mlp): Sequential(
        (c_fc): Linear(in_features=1024, out_features=4096, bias=True)
        (gelu): GELU(approximate=none)
        (c_proj): Linear(in_features=4096, out_features=1024, bias=True)
      )
      (ls_2): Identity()
    )
    (3): ResidualAttentionBlock(
      (ln_1): LayerNorm((1024,), eps=1e-05, elementwise_affine=True)
      (attn): MultiheadAttention(
        (out_proj): NonDynamicallyQuantizableLinear(in_features=1024, out_features=1024, bias=True)
      )
      (ls_1): Identity()
      (ln_2): LayerNorm((1024,), eps=1e-05, elementwise_affine=True)
      (mlp): Sequential(
        (c_fc): Linear(in_features=1024, out_features=4096, bias=True)
        (gelu): GELU(approximate=none)
        (c_proj): Linear(in_features=4096, out_features=1024, bias=True)
      )
      (ls_2): Identity()
    )
    (4): ResidualAttentionBlock(
      (ln_1): LayerNorm((1024,), eps=1e-05, elementwise_affine=True)
      (attn): MultiheadAttention(
        (out_proj): NonDynamicallyQuantizableLinear(in_features=1024, out_features=1024, bias=True)
      )
      (ls_1): Identity()
      (ln_2): LayerNorm((1024,), eps=1e-05, elementwise_affine=True)
      (mlp): Sequential(
        (c_fc): Linear(in_features=1024, out_features=4096, bias=True)
        (gelu): GELU(approximate=none)
        (c_proj): Linear(in_features=4096, out_features=1024, bias=True)
      )
      (ls_2): Identity()
    )
    (5): ResidualAttentionBlock(
      (ln_1): LayerNorm((1024,), eps=1e-05, elementwise_affine=True)
      (attn): MultiheadAttention(
        (out_proj): NonDynamicallyQuantizableLinear(in_features=1024, out_features=1024, bias=True)
      )
      (ls_1): Identity()
      (ln_2): LayerNorm((1024,), eps=1e-05, elementwise_affine=True)
      (mlp): Sequential(
        (c_fc): Linear(in_features=1024, out_features=4096, bias=True)
        (gelu): GELU(approximate=none)
        (c_proj): Linear(in_features=4096, out_features=1024, bias=True)
      )
      (ls_2): Identity()
    )
    (6): ResidualAttentionBlock(
      (ln_1): LayerNorm((1024,), eps=1e-05, elementwise_affine=True)
      (attn): MultiheadAttention(
        (out_proj): NonDynamicallyQuantizableLinear(in_features=1024, out_features=1024, bias=True)
      )
      (ls_1): Identity()
      (ln_2): LayerNorm((1024,), eps=1e-05, elementwise_affine=True)
      (mlp): Sequential(
        (c_fc): Linear(in_features=1024, out_features=4096, bias=True)
        (gelu): GELU(approximate=none)
        (c_proj): Linear(in_features=4096, out_features=1024, bias=True)
      )
      (ls_2): Identity()
    )
    (7): ResidualAttentionBlock(
      (ln_1): LayerNorm((1024,), eps=1e-05, elementwise_affine=True)
      (attn): MultiheadAttention(
        (out_proj): NonDynamicallyQuantizableLinear(in_features=1024, out_features=1024, bias=True)
      )
      (ls_1): Identity()
      (ln_2): LayerNorm((1024,), eps=1e-05, elementwise_affine=True)
      (mlp): Sequential(
        (c_fc): Linear(in_features=1024, out_features=4096, bias=True)
        (gelu): GELU(approximate=none)
        (c_proj): Linear(in_features=4096, out_features=1024, bias=True)
      )
      (ls_2): Identity()
    )
    (8): ResidualAttentionBlock(
      (ln_1): LayerNorm((1024,), eps=1e-05, elementwise_affine=True)
      (attn): MultiheadAttention(
        (out_proj): NonDynamicallyQuantizableLinear(in_features=1024, out_features=1024, bias=True)
      )
      (ls_1): Identity()
      (ln_2): LayerNorm((1024,), eps=1e-05, elementwise_affine=True)
      (mlp): Sequential(
        (c_fc): Linear(in_features=1024, out_features=4096, bias=True)
        (gelu): GELU(approximate=none)
        (c_proj): Linear(in_features=4096, out_features=1024, bias=True)
      )
      (ls_2): Identity()
    )
    (9): ResidualAttentionBlock(
      (ln_1): LayerNorm((1024,), eps=1e-05, elementwise_affine=True)
      (attn): MultiheadAttention(
        (out_proj): NonDynamicallyQuantizableLinear(in_features=1024, out_features=1024, bias=True)
      )
      (ls_1): Identity()
      (ln_2): LayerNorm((1024,), eps=1e-05, elementwise_affine=True)
      (mlp): Sequential(
        (c_fc): Linear(in_features=1024, out_features=4096, bias=True)
        (gelu): GELU(approximate=none)
        (c_proj): Linear(in_features=4096, out_features=1024, bias=True)
      )
      (ls_2): Identity()
    )
    (10): ResidualAttentionBlock(
      (ln_1): LayerNorm((1024,), eps=1e-05, elementwise_affine=True)
      (attn): MultiheadAttention(
        (out_proj): NonDynamicallyQuantizableLinear(in_features=1024, out_features=1024, bias=True)
      )
      (ls_1): Identity()
      (ln_2): LayerNorm((1024,), eps=1e-05, elementwise_affine=True)
      (mlp): Sequential(
        (c_fc): Linear(in_features=1024, out_features=4096, bias=True)
        (gelu): GELU(approximate=none)
        (c_proj): Linear(in_features=4096, out_features=1024, bias=True)
      )
      (ls_2): Identity()
    )
    (11): ResidualAttentionBlock(
      (ln_1): LayerNorm((1024,), eps=1e-05, elementwise_affine=True)
      (attn): MultiheadAttention(
        (out_proj): NonDynamicallyQuantizableLinear(in_features=1024, out_features=1024, bias=True)
      )
      (ls_1): Identity()
      (ln_2): LayerNorm((1024,), eps=1e-05, elementwise_affine=True)
      (mlp): Sequential(
        (c_fc): Linear(in_features=1024, out_features=4096, bias=True)
        (gelu): GELU(approximate=none)
        (c_proj): Linear(in_features=4096, out_features=1024, bias=True)
      )
      (ls_2): Identity()
    )
    (12): ResidualAttentionBlock(
      (ln_1): LayerNorm((1024,), eps=1e-05, elementwise_affine=True)
      (attn): MultiheadAttention(
        (out_proj): NonDynamicallyQuantizableLinear(in_features=1024, out_features=1024, bias=True)
      )
      (ls_1): Identity()
      (ln_2): LayerNorm((1024,), eps=1e-05, elementwise_affine=True)
      (mlp): Sequential(
        (c_fc): Linear(in_features=1024, out_features=4096, bias=True)
        (gelu): GELU(approximate=none)
        (c_proj): Linear(in_features=4096, out_features=1024, bias=True)
      )
      (ls_2): Identity()
    )
    (13): ResidualAttentionBlock(
      (ln_1): LayerNorm((1024,), eps=1e-05, elementwise_affine=True)
      (attn): MultiheadAttention(
        (out_proj): NonDynamicallyQuantizableLinear(in_features=1024, out_features=1024, bias=True)
      )
      (ls_1): Identity()
      (ln_2): LayerNorm((1024,), eps=1e-05, elementwise_affine=True)
      (mlp): Sequential(
        (c_fc): Linear(in_features=1024, out_features=4096, bias=True)
        (gelu): GELU(approximate=none)
        (c_proj): Linear(in_features=4096, out_features=1024, bias=True)
      )
      (ls_2): Identity()
    )
    (14): ResidualAttentionBlock(
      (ln_1): LayerNorm((1024,), eps=1e-05, elementwise_affine=True)
      (attn): MultiheadAttention(
        (out_proj): NonDynamicallyQuantizableLinear(in_features=1024, out_features=1024, bias=True)
      )
      (ls_1): Identity()
      (ln_2): LayerNorm((1024,), eps=1e-05, elementwise_affine=True)
      (mlp): Sequential(
        (c_fc): Linear(in_features=1024, out_features=4096, bias=True)
        (gelu): GELU(approximate=none)
        (c_proj): Linear(in_features=4096, out_features=1024, bias=True)
      )
      (ls_2): Identity()
    )
    (15): ResidualAttentionBlock(
      (ln_1): LayerNorm((1024,), eps=1e-05, elementwise_affine=True)
      (attn): MultiheadAttention(
        (out_proj): NonDynamicallyQuantizableLinear(in_features=1024, out_features=1024, bias=True)
      )
      (ls_1): Identity()
      (ln_2): LayerNorm((1024,), eps=1e-05, elementwise_affine=True)
      (mlp): Sequential(
        (c_fc): Linear(in_features=1024, out_features=4096, bias=True)
        (gelu): GELU(approximate=none)
        (c_proj): Linear(in_features=4096, out_features=1024, bias=True)
      )
      (ls_2): Identity()
    )
    (16): ResidualAttentionBlock(
      (ln_1): LayerNorm((1024,), eps=1e-05, elementwise_affine=True)
      (attn): MultiheadAttention(
        (out_proj): NonDynamicallyQuantizableLinear(in_features=1024, out_features=1024, bias=True)
      )
      (ls_1): Identity()
      (ln_2): LayerNorm((1024,), eps=1e-05, elementwise_affine=True)
      (mlp): Sequential(
        (c_fc): Linear(in_features=1024, out_features=4096, bias=True)
        (gelu): GELU(approximate=none)
        (c_proj): Linear(in_features=4096, out_features=1024, bias=True)
      )
      (ls_2): Identity()
    )
    (17): ResidualAttentionBlock(
      (ln_1): LayerNorm((1024,), eps=1e-05, elementwise_affine=True)
      (attn): MultiheadAttention(
        (out_proj): NonDynamicallyQuantizableLinear(in_features=1024, out_features=1024, bias=True)
      )
      (ls_1): Identity()
      (ln_2): LayerNorm((1024,), eps=1e-05, elementwise_affine=True)
      (mlp): Sequential(
        (c_fc): Linear(in_features=1024, out_features=4096, bias=True)
        (gelu): GELU(approximate=none)
        (c_proj): Linear(in_features=4096, out_features=1024, bias=True)
      )
      (ls_2): Identity()
    )
    (18): ResidualAttentionBlock(
      (ln_1): LayerNorm((1024,), eps=1e-05, elementwise_affine=True)
      (attn): MultiheadAttention(
        (out_proj): NonDynamicallyQuantizableLinear(in_features=1024, out_features=1024, bias=True)
      )
      (ls_1): Identity()
      (ln_2): LayerNorm((1024,), eps=1e-05, elementwise_affine=True)
      (mlp): Sequential(
        (c_fc): Linear(in_features=1024, out_features=4096, bias=True)
        (gelu): GELU(approximate=none)
        (c_proj): Linear(in_features=4096, out_features=1024, bias=True)
      )
      (ls_2): Identity()
    )
    (19): ResidualAttentionBlock(
      (ln_1): LayerNorm((1024,), eps=1e-05, elementwise_affine=True)
      (attn): MultiheadAttention(
        (out_proj): NonDynamicallyQuantizableLinear(in_features=1024, out_features=1024, bias=True)
      )
      (ls_1): Identity()
      (ln_2): LayerNorm((1024,), eps=1e-05, elementwise_affine=True)
      (mlp): Sequential(
        (c_fc): Linear(in_features=1024, out_features=4096, bias=True)
        (gelu): GELU(approximate=none)
        (c_proj): Linear(in_features=4096, out_features=1024, bias=True)
      )
      (ls_2): Identity()
    )
    (20): ResidualAttentionBlock(
      (ln_1): LayerNorm((1024,), eps=1e-05, elementwise_affine=True)
      (attn): MultiheadAttention(
        (out_proj): NonDynamicallyQuantizableLinear(in_features=1024, out_features=1024, bias=True)
      )
      (ls_1): Identity()
      (ln_2): LayerNorm((1024,), eps=1e-05, elementwise_affine=True)
      (mlp): Sequential(
        (c_fc): Linear(in_features=1024, out_features=4096, bias=True)
        (gelu): GELU(approximate=none)
        (c_proj): Linear(in_features=4096, out_features=1024, bias=True)
      )
      (ls_2): Identity()
    )
    (21): ResidualAttentionBlock(
      (ln_1): LayerNorm((1024,), eps=1e-05, elementwise_affine=True)
      (attn): MultiheadAttention(
        (out_proj): NonDynamicallyQuantizableLinear(in_features=1024, out_features=1024, bias=True)
      )
      (ls_1): Identity()
      (ln_2): LayerNorm((1024,), eps=1e-05, elementwise_affine=True)
      (mlp): Sequential(
        (c_fc): Linear(in_features=1024, out_features=4096, bias=True)
        (gelu): GELU(approximate=none)
        (c_proj): Linear(in_features=4096, out_features=1024, bias=True)
      )
      (ls_2): Identity()
    )
    (22): ResidualAttentionBlock(
      (ln_1): LayerNorm((1024,), eps=1e-05, elementwise_affine=True)
      (attn): MultiheadAttention(
        (out_proj): NonDynamicallyQuantizableLinear(in_features=1024, out_features=1024, bias=True)
      )
      (ls_1): Identity()
      (ln_2): LayerNorm((1024,), eps=1e-05, elementwise_affine=True)
      (mlp): Sequential(
        (c_fc): Linear(in_features=1024, out_features=4096, bias=True)
        (gelu): GELU(approximate=none)
        (c_proj): Linear(in_features=4096, out_features=1024, bias=True)
      )
      (ls_2): Identity()
    )
    (23): ResidualAttentionBlock(
      (ln_1): LayerNorm((1024,), eps=1e-05, elementwise_affine=True)
      (attn): MultiheadAttention(
        (out_proj): NonDynamicallyQuantizableLinear(in_features=1024, out_features=1024, bias=True)
      )
      (ls_1): Identity()
      (ln_2): LayerNorm((1024,), eps=1e-05, elementwise_affine=True)
      (mlp): Sequential(
        (c_fc): Linear(in_features=1024, out_features=4096, bias=True)
        (gelu): GELU(approximate=none)
        (c_proj): Linear(in_features=4096, out_features=1024, bias=True)
      )
      (ls_2): Identity()
    )
  )
)
Transformer(
  (resblocks): ModuleList(
    (0): ResidualAttentionBlock(
      (ln_1): LayerNorm((1024,), eps=1e-05, elementwise_affine=True)
      (attn): MultiheadAttention(
        (out_proj): NonDynamicallyQuantizableLinear(in_features=1024, out_features=1024, bias=True)
      )
      (ls_1): Identity()
      (ln_2): LayerNorm((1024,), eps=1e-05, elementwise_affine=True)
      (mlp): Sequential(
        (c_fc): Linear(in_features=1024, out_features=4096, bias=True)
        (gelu): GELU(approximate=none)
        (c_proj): Linear(in_features=4096, out_features=1024, bias=True)
      )
      (ls_2): Identity()
    )
    (1): ResidualAttentionBlock(
      (ln_1): LayerNorm((1024,), eps=1e-05, elementwise_affine=True)
      (attn): MultiheadAttention(
        (out_proj): NonDynamicallyQuantizableLinear(in_features=1024, out_features=1024, bias=True)
      )
      (ls_1): Identity()
      (ln_2): LayerNorm((1024,), eps=1e-05, elementwise_affine=True)
      (mlp): Sequential(
        (c_fc): Linear(in_features=1024, out_features=4096, bias=True)
        (gelu): GELU(approximate=none)
        (c_proj): Linear(in_features=4096, out_features=1024, bias=True)
      )
      (ls_2): Identity()
    )
    (2): ResidualAttentionBlock(
      (ln_1): LayerNorm((1024,), eps=1e-05, elementwise_affine=True)
      (attn): MultiheadAttention(
        (out_proj): NonDynamicallyQuantizableLinear(in_features=1024, out_features=1024, bias=True)
      )
      (ls_1): Identity()
      (ln_2): LayerNorm((1024,), eps=1e-05, elementwise_affine=True)
      (mlp): Sequential(
        (c_fc): Linear(in_features=1024, out_features=4096, bias=True)
        (gelu): GELU(approximate=none)
        (c_proj): Linear(in_features=4096, out_features=1024, bias=True)
      )
      (ls_2): Identity()
    )
    (3): ResidualAttentionBlock(
      (ln_1): LayerNorm((1024,), eps=1e-05, elementwise_affine=True)
      (attn): MultiheadAttention(
        (out_proj): NonDynamicallyQuantizableLinear(in_features=1024, out_features=1024, bias=True)
      )
      (ls_1): Identity()
      (ln_2): LayerNorm((1024,), eps=1e-05, elementwise_affine=True)
      (mlp): Sequential(
        (c_fc): Linear(in_features=1024, out_features=4096, bias=True)
        (gelu): GELU(approximate=none)
        (c_proj): Linear(in_features=4096, out_features=1024, bias=True)
      )
      (ls_2): Identity()
    )
    (4): ResidualAttentionBlock(
      (ln_1): LayerNorm((1024,), eps=1e-05, elementwise_affine=True)
      (attn): MultiheadAttention(
        (out_proj): NonDynamicallyQuantizableLinear(in_features=1024, out_features=1024, bias=True)
      )
      (ls_1): Identity()
      (ln_2): LayerNorm((1024,), eps=1e-05, elementwise_affine=True)
      (mlp): Sequential(
        (c_fc): Linear(in_features=1024, out_features=4096, bias=True)
        (gelu): GELU(approximate=none)
        (c_proj): Linear(in_features=4096, out_features=1024, bias=True)
      )
      (ls_2): Identity()
    )
    (5): ResidualAttentionBlock(
      (ln_1): LayerNorm((1024,), eps=1e-05, elementwise_affine=True)
      (attn): MultiheadAttention(
        (out_proj): NonDynamicallyQuantizableLinear(in_features=1024, out_features=1024, bias=True)
      )
      (ls_1): Identity()
      (ln_2): LayerNorm((1024,), eps=1e-05, elementwise_affine=True)
      (mlp): Sequential(
        (c_fc): Linear(in_features=1024, out_features=4096, bias=True)
        (gelu): GELU(approximate=none)
        (c_proj): Linear(in_features=4096, out_features=1024, bias=True)
      )
      (ls_2): Identity()
    )
    (6): ResidualAttentionBlock(
      (ln_1): LayerNorm((1024,), eps=1e-05, elementwise_affine=True)
      (attn): MultiheadAttention(
        (out_proj): NonDynamicallyQuantizableLinear(in_features=1024, out_features=1024, bias=True)
      )
      (ls_1): Identity()
      (ln_2): LayerNorm((1024,), eps=1e-05, elementwise_affine=True)
      (mlp): Sequential(
        (c_fc): Linear(in_features=1024, out_features=4096, bias=True)
        (gelu): GELU(approximate=none)
        (c_proj): Linear(in_features=4096, out_features=1024, bias=True)
      )
      (ls_2): Identity()
    )
    (7): ResidualAttentionBlock(
      (ln_1): LayerNorm((1024,), eps=1e-05, elementwise_affine=True)
      (attn): MultiheadAttention(
        (out_proj): NonDynamicallyQuantizableLinear(in_features=1024, out_features=1024, bias=True)
      )
      (ls_1): Identity()
      (ln_2): LayerNorm((1024,), eps=1e-05, elementwise_affine=True)
      (mlp): Sequential(
        (c_fc): Linear(in_features=1024, out_features=4096, bias=True)
        (gelu): GELU(approximate=none)
        (c_proj): Linear(in_features=4096, out_features=1024, bias=True)
      )
      (ls_2): Identity()
    )
    (8): ResidualAttentionBlock(
      (ln_1): LayerNorm((1024,), eps=1e-05, elementwise_affine=True)
      (attn): MultiheadAttention(
        (out_proj): NonDynamicallyQuantizableLinear(in_features=1024, out_features=1024, bias=True)
      )
      (ls_1): Identity()
      (ln_2): LayerNorm((1024,), eps=1e-05, elementwise_affine=True)
      (mlp): Sequential(
        (c_fc): Linear(in_features=1024, out_features=4096, bias=True)
        (gelu): GELU(approximate=none)
        (c_proj): Linear(in_features=4096, out_features=1024, bias=True)
      )
      (ls_2): Identity()
    )
    (9): ResidualAttentionBlock(
      (ln_1): LayerNorm((1024,), eps=1e-05, elementwise_affine=True)
      (attn): MultiheadAttention(
        (out_proj): NonDynamicallyQuantizableLinear(in_features=1024, out_features=1024, bias=True)
      )
      (ls_1): Identity()
      (ln_2): LayerNorm((1024,), eps=1e-05, elementwise_affine=True)
      (mlp): Sequential(
        (c_fc): Linear(in_features=1024, out_features=4096, bias=True)
        (gelu): GELU(approximate=none)
        (c_proj): Linear(in_features=4096, out_features=1024, bias=True)
      )
      (ls_2): Identity()
    )
    (10): ResidualAttentionBlock(
      (ln_1): LayerNorm((1024,), eps=1e-05, elementwise_affine=True)
      (attn): MultiheadAttention(
        (out_proj): NonDynamicallyQuantizableLinear(in_features=1024, out_features=1024, bias=True)
      )
      (ls_1): Identity()
      (ln_2): LayerNorm((1024,), eps=1e-05, elementwise_affine=True)
      (mlp): Sequential(
        (c_fc): Linear(in_features=1024, out_features=4096, bias=True)
        (gelu): GELU(approximate=none)
        (c_proj): Linear(in_features=4096, out_features=1024, bias=True)
      )
      (ls_2): Identity()
    )
    (11): ResidualAttentionBlock(
      (ln_1): LayerNorm((1024,), eps=1e-05, elementwise_affine=True)
      (attn): MultiheadAttention(
        (out_proj): NonDynamicallyQuantizableLinear(in_features=1024, out_features=1024, bias=True)
      )
      (ls_1): Identity()
      (ln_2): LayerNorm((1024,), eps=1e-05, elementwise_affine=True)
      (mlp): Sequential(
        (c_fc): Linear(in_features=1024, out_features=4096, bias=True)
        (gelu): GELU(approximate=none)
        (c_proj): Linear(in_features=4096, out_features=1024, bias=True)
      )
      (ls_2): Identity()
    )
    (12): ResidualAttentionBlock(
      (ln_1): LayerNorm((1024,), eps=1e-05, elementwise_affine=True)
      (attn): MultiheadAttention(
        (out_proj): NonDynamicallyQuantizableLinear(in_features=1024, out_features=1024, bias=True)
      )
      (ls_1): Identity()
      (ln_2): LayerNorm((1024,), eps=1e-05, elementwise_affine=True)
      (mlp): Sequential(
        (c_fc): Linear(in_features=1024, out_features=4096, bias=True)
        (gelu): GELU(approximate=none)
        (c_proj): Linear(in_features=4096, out_features=1024, bias=True)
      )
      (ls_2): Identity()
    )
    (13): ResidualAttentionBlock(
      (ln_1): LayerNorm((1024,), eps=1e-05, elementwise_affine=True)
      (attn): MultiheadAttention(
        (out_proj): NonDynamicallyQuantizableLinear(in_features=1024, out_features=1024, bias=True)
      )
      (ls_1): Identity()
      (ln_2): LayerNorm((1024,), eps=1e-05, elementwise_affine=True)
      (mlp): Sequential(
        (c_fc): Linear(in_features=1024, out_features=4096, bias=True)
        (gelu): GELU(approximate=none)
        (c_proj): Linear(in_features=4096, out_features=1024, bias=True)
      )
      (ls_2): Identity()
    )
    (14): ResidualAttentionBlock(
      (ln_1): LayerNorm((1024,), eps=1e-05, elementwise_affine=True)
      (attn): MultiheadAttention(
        (out_proj): NonDynamicallyQuantizableLinear(in_features=1024, out_features=1024, bias=True)
      )
      (ls_1): Identity()
      (ln_2): LayerNorm((1024,), eps=1e-05, elementwise_affine=True)
      (mlp): Sequential(
        (c_fc): Linear(in_features=1024, out_features=4096, bias=True)
        (gelu): GELU(approximate=none)
        (c_proj): Linear(in_features=4096, out_features=1024, bias=True)
      )
      (ls_2): Identity()
    )
    (15): ResidualAttentionBlock(
      (ln_1): LayerNorm((1024,), eps=1e-05, elementwise_affine=True)
      (attn): MultiheadAttention(
        (out_proj): NonDynamicallyQuantizableLinear(in_features=1024, out_features=1024, bias=True)
      )
      (ls_1): Identity()
      (ln_2): LayerNorm((1024,), eps=1e-05, elementwise_affine=True)
      (mlp): Sequential(
        (c_fc): Linear(in_features=1024, out_features=4096, bias=True)
        (gelu): GELU(approximate=none)
        (c_proj): Linear(in_features=4096, out_features=1024, bias=True)
      )
      (ls_2): Identity()
    )
    (16): ResidualAttentionBlock(
      (ln_1): LayerNorm((1024,), eps=1e-05, elementwise_affine=True)
      (attn): MultiheadAttention(
        (out_proj): NonDynamicallyQuantizableLinear(in_features=1024, out_features=1024, bias=True)
      )
      (ls_1): Identity()
      (ln_2): LayerNorm((1024,), eps=1e-05, elementwise_affine=True)
      (mlp): Sequential(
        (c_fc): Linear(in_features=1024, out_features=4096, bias=True)
        (gelu): GELU(approximate=none)
        (c_proj): Linear(in_features=4096, out_features=1024, bias=True)
      )
      (ls_2): Identity()
    )
    (17): ResidualAttentionBlock(
      (ln_1): LayerNorm((1024,), eps=1e-05, elementwise_affine=True)
      (attn): MultiheadAttention(
        (out_proj): NonDynamicallyQuantizableLinear(in_features=1024, out_features=1024, bias=True)
      )
      (ls_1): Identity()
      (ln_2): LayerNorm((1024,), eps=1e-05, elementwise_affine=True)
      (mlp): Sequential(
        (c_fc): Linear(in_features=1024, out_features=4096, bias=True)
        (gelu): GELU(approximate=none)
        (c_proj): Linear(in_features=4096, out_features=1024, bias=True)
      )
      (ls_2): Identity()
    )
    (18): ResidualAttentionBlock(
      (ln_1): LayerNorm((1024,), eps=1e-05, elementwise_affine=True)
      (attn): MultiheadAttention(
        (out_proj): NonDynamicallyQuantizableLinear(in_features=1024, out_features=1024, bias=True)
      )
      (ls_1): Identity()
      (ln_2): LayerNorm((1024,), eps=1e-05, elementwise_affine=True)
      (mlp): Sequential(
        (c_fc): Linear(in_features=1024, out_features=4096, bias=True)
        (gelu): GELU(approximate=none)
        (c_proj): Linear(in_features=4096, out_features=1024, bias=True)
      )
      (ls_2): Identity()
    )
    (19): ResidualAttentionBlock(
      (ln_1): LayerNorm((1024,), eps=1e-05, elementwise_affine=True)
      (attn): MultiheadAttention(
        (out_proj): NonDynamicallyQuantizableLinear(in_features=1024, out_features=1024, bias=True)
      )
      (ls_1): Identity()
      (ln_2): LayerNorm((1024,), eps=1e-05, elementwise_affine=True)
      (mlp): Sequential(
        (c_fc): Linear(in_features=1024, out_features=4096, bias=True)
        (gelu): GELU(approximate=none)
        (c_proj): Linear(in_features=4096, out_features=1024, bias=True)
      )
      (ls_2): Identity()
    )
    (20): ResidualAttentionBlock(
      (ln_1): LayerNorm((1024,), eps=1e-05, elementwise_affine=True)
      (attn): MultiheadAttention(
        (out_proj): NonDynamicallyQuantizableLinear(in_features=1024, out_features=1024, bias=True)
      )
      (ls_1): Identity()
      (ln_2): LayerNorm((1024,), eps=1e-05, elementwise_affine=True)
      (mlp): Sequential(
        (c_fc): Linear(in_features=1024, out_features=4096, bias=True)
        (gelu): GELU(approximate=none)
        (c_proj): Linear(in_features=4096, out_features=1024, bias=True)
      )
      (ls_2): Identity()
    )
    (21): ResidualAttentionBlock(
      (ln_1): LayerNorm((1024,), eps=1e-05, elementwise_affine=True)
      (attn): MultiheadAttention(
        (out_proj): NonDynamicallyQuantizableLinear(in_features=1024, out_features=1024, bias=True)
      )
      (ls_1): Identity()
      (ln_2): LayerNorm((1024,), eps=1e-05, elementwise_affine=True)
      (mlp): Sequential(
        (c_fc): Linear(in_features=1024, out_features=4096, bias=True)
        (gelu): GELU(approximate=none)
        (c_proj): Linear(in_features=4096, out_features=1024, bias=True)
      )
      (ls_2): Identity()
    )
    (22): ResidualAttentionBlock(
      (ln_1): LayerNorm((1024,), eps=1e-05, elementwise_affine=True)
      (attn): MultiheadAttention(
        (out_proj): NonDynamicallyQuantizableLinear(in_features=1024, out_features=1024, bias=True)
      )
      (ls_1): Identity()
      (ln_2): LayerNorm((1024,), eps=1e-05, elementwise_affine=True)
      (mlp): Sequential(
        (c_fc): Linear(in_features=1024, out_features=4096, bias=True)
        (gelu): GELU(approximate=none)
        (c_proj): Linear(in_features=4096, out_features=1024, bias=True)
      )
      (ls_2): Identity()
    )
    (23): ResidualAttentionBlock(
      (ln_1): LayerNorm((1024,), eps=1e-05, elementwise_affine=True)
      (attn): MultiheadAttention(
        (out_proj): NonDynamicallyQuantizableLinear(in_features=1024, out_features=1024, bias=True)
      )
      (ls_1): Identity()
      (ln_2): LayerNorm((1024,), eps=1e-05, elementwise_affine=True)
      (mlp): Sequential(
        (c_fc): Linear(in_features=1024, out_features=4096, bias=True)
        (gelu): GELU(approximate=none)
        (c_proj): Linear(in_features=4096, out_features=1024, bias=True)
      )
      (ls_2): Identity()
    )
  )
)
does the model shrink? 986109441
does the model shrink? 986109441
does the model shrink? 986109441
does the model shrink? 986109441
does the model shrink? 986109441
does the model shrink? 986109441
does the model shrink? 986109441
does the model shrink? 986109441
does the model shrink? 986109441
does the model shrink? 986109441
…
